saved_best_model_fp.pt (torch, 141159 bytes, 4 tensors)

linear1.weight f4 [128, 13]
0	0x3e8ab152	0.2708841
1	0x3dd5008e	0.104004964
2	0x3dca55bc	0.09879634
3	0x3e37c2fc	0.17945474
4	0xbe6d636a	-0.23182455
5	0xbd99b7e0	-0.075057745
6	0x3dff6fb7	0.1247248
7	0xbe09f37f	-0.13471793
8	0x3d3cc1fb	0.04608343
9	0x3e5c8eb4	0.21538812
10	0xbcb6be99	-0.02230768
11	0x3d851e67	0.064999394
12	0xbe81647c	-0.25271976
13	0x3e0a9638	0.13533866
14	0xbe18e37e	-0.14930531
15	0x3e6f9c08	0.23399365
16	0x3dec3064	0.11532667
17	0xbe21f2bf	-0.15815257
18	0xbc7a1cbf	-0.015265643
19	0xbe4c5a85	-0.19956405
20	0x3e40a567	0.18813096
21	0x3e089886	0.13339433
22	0x3cbeaf45	0.023276934
23	0x3e504a4a	0.20340839
24	0xbe5da718	-0.21645772
25	0xbe52a8ba	-0.20572177
26	0xbc69c6d7	-0.0142685985
27	0xbde5ae6c	-0.11214909
28	0xbe2e109c	-0.16998523
29	0xbdc73bc2	-0.09728195
30	0x3e95648e	0.2917828
31	0x3de38d0d	0.11110888
32	0x3e802305	0.25026718
33	0x3dcf02f5	0.10107986
34	0xbe7a4a78	-0.2444247
35	0x3d361b25	0.04445948
36	0x3e630c34	0.22172624
37	0x3e15404b	0.14575307
38	0x3e16b5ea	0.14717832
39	0xbe33e318	-0.17567098
40	0xbe27246c	-0.16322488
41	0x3e4e5b02	0.20151904
42	0xbdcb4620	-0.09925485
43	0x3ea9ef30	0.33190298
44	0x3e3975f9	0.18111409
45	0xbdadc1ae	-0.08484207
46	0xbe84de21	-0.2595072
47	0xbda468cc	-0.08027801
48	0x3e45c7b3	0.1931446
49	0x3e78b2d1	0.24286963
50	0xbe6c7052	-0.23089722
51	0x3e94563e	0.28972048
52	0xbcc5bdd7	-0.024138374
53	0x3d3d7372	0.046252675
54	0x3e831ffb	0.25610337
55	0xbe8640a6	-0.26221198
56	0x3e988054	0.29785407
57	0xbe273c12	-0.16331509
58	0xbe52d6d5	-0.20589764
59	0x3c1f052a	0.009705821
60	0xbe8816d9	-0.2657993
61	0xbe5121b0	-0.20423007
62	0x3d03a01b	0.03213511
63	0xbe4535ee	-0.19258854
64	0x3d38a08d	0.04507499
65	0x3e30c979	0.17264356
66	0xbdd8027c	-0.10547349
67	0xbe1874af	-0.14888261
68	0x3d2462e8	0.040133387
69	0xbe98fae4	-0.29878914
70	0xbe3fba42	-0.18723395
71	0xbe8799c9	-0.26484516
72	0xbe771057	-0.24127327
73	0xbd7661bb	-0.060151797
74	0xbde91b4a	-0.11382158
75	0x3cb8cce8	0.022558644
76	0xbd168441	-0.03674722
77	0xbcc038d8	-0.023464605
78	0x3ce09b4e	0.027417805
79	0x3e5fdf42	0.2186251
80	0x3e21d877	0.15805231
81	0xbdb25e7b	-0.08709427
82	0x3ee508f6	0.447334
83	0x3d5279ad	0.05138557
84	0xbda390aa	-0.07986577
85	0x3dafbec5	0.08581308
86	0xbe9e967c	-0.30974185
87	0x3cbd9b4a	0.023145337
88	0x3d81627a	0.06317611
89	0x3e59e3e5	0.21278341
90	0x3e8cd6d9	0.27507666
91	0x3e609233	0.2193077
92	0x3c77aef3	0.015117395
93	0x3d7e959e	0.062154405
94	0xbe45e089	-0.19323935
95	0x3da7196c	0.08159146
96	0xbe2e76f3	-0.17037563
97	0x3e16566d	0.14681406
98	0x3e2e9caa	0.1705195
99	0x3e27bdaa	0.16380945
100	0x3e5d1d98	0.2159332
101	0xbe017a3b	-0.12644283
102	0x3c6d09b1	0.014467643
103	0xbe440441	-0.19142248
104	0xbd79fa9d	-0.06103002
105	0x3dce7fba	0.10082956
106	0xbe21d75c	-0.1580481
107	0x3c4f8955	0.01266702
108	0xbdad8946	-0.084734485
109	0xbe0cfeca	-0.1376907
110	0x3e4473c2	0.19184783
111	0x3d9e2166	0.07721214
112	0x3d86a028	0.06573516
113	0x3d35cde4	0.044385806
114	0x3e0618aa	0.13095346
115	0xbd1648aa	-0.03669039
116	0x3e26747b	0.16255371
117	0x3d8db101	0.069185264
118	0x3d2061ea	0.039155878
119	0xbd64f445	-0.055897016
120	0xbe2c2304	-0.16810232
121	0x3eac15ae	0.3361029
122	0xbe00cff5	-0.1257933
123	0x3e83ceeb	0.25743803
124	0xbdc64abd	-0.09682224
125	0x3d5ff721	0.05467904
126	0x3e8c2c73	0.27377662
127	0xbd8a777e	-0.067610726
128	0xbdf4314c	-0.11923465
129	0x3e36e8ba	0.17862216
130	0x3c7bab61	0.015360684
131	0xbc9656da	-0.01835196
132	0x3d23a0f4	0.03994842
133	0x3e4734a9	0.19453682
134	0xbdaa74b4	-0.083230406
135	0xbdac09a8	-0.08400279
136	0x3d123133	0.03569145
137	0xbe5e6443	-0.21717934
138	0x3e72c99f	0.23709725
139	0xbb854394	-0.004066894
140	0xbdc9b49b	-0.09848901
141	0xbd7bf1a2	-0.061509736
142	0x3cccaed5	0.02498571
143	0xbdf59b1c	-0.119924754
144	0x3db0d85d	0.08635018
145	0x3de849f9	0.11342234
146	0x3e333a3e	0.17502686
147	0x3ea884e4	0.32913888
148	0xba50d2ac	-0.0007965963
149	0xbe8c5d0d	-0.27414742
150	0xbea5d29e	-0.3238725
151	0xbd26f4fe	-0.040760987
152	0xbced533e	-0.028970357
153	0x3e5afe83	0.21386151
154	0xbe8c1119	-0.27356794
155	0xbde3b803	-0.11119082
156	0x3af309af	0.0018542315
157	0xbe882652	-0.26591736
158	0xbe6115da	-0.21980992
159	0xbe06c7f4	-0.13162214
160	0xbd00c230	-0.03143519
161	0x3dee62e6	0.11639957
162	0x3e8aaf6e	0.27086967
163	0x3e01a4f5	0.12660582
164	0x3d802e2d	0.06258807
165	0x3e117d20	0.14207888
166	0x3e32b4ea	0.17451826
167	0x3d220e5d	0.03956448
168	0xbdf1cd8a	-0.118067816
169	0x3dcc628c	0.09979734
170	0xbe19c063	-0.15014796
171	0xbe7ef0d0	-0.2489655
172	0xbd27cd40	-0.040967226
173	0xbd9ecae7	-0.07753544
174	0x3e6e2012	0.23254421
175	0xbd8897bd	-0.06669567
176	0xbe3fe622	-0.18740132
177	0xbeacf7f4	-0.33782923
178	0xbe201431	-0.15632702
179	0x3c1774cc	0.009244155
180	0x3d73c3aa	0.05951277
181	0x3e8acf0e	0.27111095
182	0x3e4206f3	0.18947963
183	0x3e005db4	0.12535745
184	0xbe85b3a8	-0.2611363
185	0xbe63d7bd	-0.22250266
186	0x3e87b025	0.26501575
187	0xbe2c2387	-0.16810428
188	0x3dd6e4e7	0.104928784
189	0xbea28425	-0.31741443
190	0x3db935f1	0.09043492
191	0x3c94a2ee	0.018144097
192	0xbe4cd23f	-0.20002078
193	0xbe0ff484	-0.14058119
194	0xbe87d074	-0.26526225
195	0x3c4803cc	0.0122079365
196	0xbd88d42c	-0.066810936
197	0x3e2bcd90	0.16777635
198	0xbe389b1b	-0.18027918
199	0xbc420676	-0.011842361
200	0x3e466a68	0.19376528
201	0xbe484dee	-0.19560978
202	0xbe8264ae	-0.25467438
203	0xbd676613	-0.05649383
204	0x3e68d2dc	0.22736686
205	0x3e832b9b	0.25619206
206	0x3e1e5680	0.15462685
207	0xbe08f505	-0.13374718
208	0x3e2bcf93	0.16778402
209	0xbd1e74b2	-0.038685508
210	0xbe0ab4d6	-0.13545546
211	0x3e795aa4	0.24350983
212	0x3e1f567d	0.15560336
213	0xbd811f18	-0.06304759
214	0x3d85f88e	0.06541549
215	0xbded1860	-0.11576915
216	0x3d8d19b6	0.068896696
217	0x3a8841c2	0.0010395574
218	0xbcc84e9d	-0.024451548
219	0x3cfb90e0	0.03070873
220	0xbdf7a020	-0.12091088
221	0xbe199b31	-0.15000607
222	0xbde46a28	-0.1115306
223	0xbdfab3ba	-0.12241311
224	0x3dbc2aa1	0.09187818
225	0xbe7fe174	-0.24988347
226	0x3dd805c9	0.105479784
227	0xbe1f165a	-0.1553587
228	0xbb05d9ad	-0.0020423934
229	0xbdc3b693	-0.09556308
230	0x3e3348db	0.17508261
231	0xbd65da1d	-0.056116212
232	0xbddbeef5	-0.10738937
233	0x3dc09df3	0.094051264
234	0xbe678343	-0.22608666
235	0xbd4d815f	-0.050172206
236	0x3e5ddd7d	0.21666522
237	0x3e832b9e	0.25619215
238	0x3ce1fa49	0.027585166
239	0xbe30d970	-0.17270446
240	0xbd911112	-0.07083334
241	0xbe989d70	-0.29807615
242	0xbebcf7e1	-0.36907867
243	0xbe466c7d	-0.19377322
244	0xbe85dd39	-0.26145342
245	0xbe518139	-0.20459451
246	0x3e51410b	0.20434968
247	0xbe476910	-0.19473672
248	0x3e7aa61a	0.24477425
249	0x3aefb7f5	0.0018289076
250	0x3d9a367d	0.07529924
251	0xbe7527e0	-0.23940992
252	0x3e13306a	0.14373937
253	0xbdaa6b3b	-0.08321234
254	0xbd8039f1	-0.062610514
255	0xbe7fce41	-0.24981023

linear2.weight f4 [128, 128]
0	0xbc823021	-0.01589209
1	0xbdaf0dc6	-0.08547549
2	0x3cc2530b	0.023721239
3	0x3ba49877	0.005023058
4	0x3c5b4156	0.0133822765
5	0x3d86aff9	0.06576533
6	0x3c62fc5a	0.013854111
7	0x3bac9710	0.0052670315
8	0x3d2bf658	0.04198298
9	0x3cbb9cce	0.022901919
10	0x3d99de46	0.075130984
11	0x3dcdd9cf	0.10051309
12	0x3d3f14cb	0.04665069
13	0x3daf12f7	0.08548539
14	0x3dabb936	0.083849356
15	0x3d3747c9	0.044746194
16	0xbcef8b52	-0.029241238
17	0x3c9c599e	0.019085702
18	0x3c8e31e8	0.017357782
19	0xbdaded6c	-0.0849255
20	0xbdacd8ca	-0.08439787
21	0xbd37f0e5	-0.04490747
22	0xbc99467f	-0.018710373
23	0x3be35efa	0.0069388123
24	0xbcdc7c6c	-0.026914798
25	0xbcfdca1d	-0.030980164
26	0x3d267c6a	0.040645994
27	0x3db59538	0.08866352
28	0x3d560d5d	0.052258838
29	0x3d88317a	0.06650062
30	0xbcaa595a	-0.02079456
31	0xbd77b397	-0.060474005
32	0x3d7af999	0.06127319
33	0x3cae0350	0.021241814
34	0x3d6fd04d	0.05854826
35	0xbd6283b4	-0.055301383
36	0x3d9ac31b	0.07556745
37	0xbd9daa14	-0.076984555
38	0x3d6900b4	0.056885436
39	0xbc957896	-0.018245976
40	0x3c7fe23c	0.015617903
41	0x3c839b0f	0.016065149
42	0xbd0ff9a4	-0.035150185
43	0x3d516286	0.05111935
44	0x3d764bcd	0.060130883
45	0x3d7708d6	0.06031116
46	0x3da7db56	0.08196132
47	0xbdada609	-0.08478934
48	0xbd1b7c96	-0.03796061
49	0x3ca69dae	0.02033886
50	0x3d95fac9	0.07323224
51	0xbccddd50	-0.025129944
52	0x3c1dad0c	0.009623777
53	0x3d85eb87	0.06539064
54	0xbcbbb973	-0.022915578
55	0x3d3e639e	0.04648172
56	0xbc96b2d4	-0.018395819
57	0xbc644cfe	-0.013934372
58	0x3c8915f7	0.016734106
59	0xbb039a1d	-0.0020080872
60	0x3aee7313	0.0018192254
61	0x3d789dcd	0.060697366
62	0xbc4c2180	-0.012459159
63	0x3d3f5fce	0.046722226
64	0x3d9a8bb5	0.07546178
65	0xbd890489	-0.06690318
66	0xbd487d00	-0.048947334
67	0x3d2e53be	0.04256033
68	0xbdce70a5	-0.10080079
69	0xbd41c0ba	-0.04730294
70	0xbda0627f	-0.07831287
71	0x3c82122b	0.015877804
72	0xbc228125	-0.009918486
73	0x3d6f1bf3	0.058376264
74	0x3d144d08	0.036206275
75	0x3ccbd610	0.024882346
76	0xbda3fed0	-0.08007586
77	0x3c05a0df	0.00815603
78	0x3c9fbb10	0.019498378
79	0x3d09c0ab	0.033631008
80	0x3c4146bc	0.01179665
81	0x3ccc371a	0.024928618
82	0x3ae7fec2	0.0017699825
83	0x3b23e73b	0.002500965
84	0xbb458192	-0.0030137044
85	0x3da50883	0.08058264
86	0xbd5093fc	-0.05092238
87	0xbda3ca60	-0.07997584
88	0xbc842e8b	-0.016135475
89	0x3cd18ea3	0.02558071
90	0xba6d5009	-0.00090527587
91	0xbc887f1a	-0.01666217
92	0x3d6b6348	0.05746773
93	0xbd702062	-0.058624633
94	0x3d899baa	0.06719144
95	0xbc516d19	-0.012782359
96	0x3dac3320	0.08408189
97	0xbd175bdf	-0.03695285
98	0x3cc72c65	0.024313161
99	0xbda8c3b2	-0.08240451
100	0x3c80d250	0.015725285
101	0xbd9779fd	-0.07396314
102	0xbcf874ac	-0.030329071
103	0xbd5b44b6	-0.053532325
104	0x3d502d62	0.05082453
105	0xbda7eecc	-0.08199844
106	0xbd04245a	-0.03226123
107	0xbc359c35	-0.011084606
108	0x3dbbba0d	0.09166346
109	0x3ca1ed76	0.01976655
110	0x3ca16287	0.019700302
111	0x3d5e0542	0.054204233
112	0xbc072dca	-0.008250663
113	0xbccf4178	-0.025299773
114	0xbcea303e	-0.028587457
115	0xbd1381b3	-0.036012363
116	0x3cea30ed	0.028587783
117	0xbd051f30	-0.032500446
118	0x3d229fea	0.039703287
119	0xbbde38e6	-0.006781685
120	0x3c88b1ca	0.016686339
121	0x3d38e9ee	0.045144968
122	0x3d4593b2	0.048236556
123	0x3c47616c	0.012169223
124	0x3abf428a	0.0014591974
125	0xbc9edb38	-0.019391641
126	0x3b4a8717	0.0030903274
127	0x3c1234cd	0.0089237215
128	0xbd514544	-0.051091447
129	0xbd146733	-0.03623123
130	0xbd320008	-0.04345706
131	0x3d9d19d7	0.07670944
132	0x3da73fb2	0.08166446
133	0xbb8d34c9	-0.004309271
134	0xbd6d5fca	-0.05795268
135	0xbd845f11	-0.06463445
136	0x3d2b7d6f	0.04186767
137	0xbc993b78	-0.018705115
138	0xbd9a78f7	-0.075426035
139	0x3cd0bc3f	0.025480388
140	0xbca1e5de	-0.01976293
141	0xbd082a2c	-0.033243343
142	0xbdb39a52	-0.08769669
143	0x3d9f1937	0.07768481
144	0x3d9b2a1c	0.07576391
145	0xbcf10022	-0.029419009
146	0x3ccb455e	0.02481335
147	0x3d2d935d	0.042376865
148	0x3cebd063	0.02878589
149	0xbd8d906a	-0.069123104
150	0xbd393b46	-0.045222543
151	0xbd760c82	-0.060070522
152	0x3d65adc0	0.056073904
153	0xbc2bbdad	-0.010482234
154	0xbcdfe544	-0.027331002
155	0xbd659e62	-0.05605925
156	0x3d60c8c3	0.05487896
157	0x3d4a2b90	0.04935795
158	0xbcce6379	-0.025193917
159	0x3d85e427	0.06537657
160	0xbd2f746f	-0.04283565
161	0x3b42b05f	0.0029707176
162	0x3aea04d6	0.0017854224
163	0xbd11b586	-0.035573505
164	0x3d9eacaf	0.077477805
165	0xbd51cacd	-0.051218797
166	0xbd73d9a3	-0.059533726
167	0x3da65c77	0.08123105
168	0xbdaf341e	-0.085548624
169	0xbdad7444	-0.084694415
170	0xbcb016cf	-0.021495251
171	0xbd263f81	-0.040587906
172	0xbd9cf447	-0.0766378
173	0xbd9f2cb9	-0.07772202
174	0x3c55b3ef	0.013043388
175	0x3ca402b5	0.020020822
176	0xbd6ccb8d	-0.05781131
177	0xbcc110e0	-0.023567617
178	0xbd4cc9c6	-0.049997114
179	0xbc136393	-0.008995908
180	0x3c41aee4	0.011821482
181	0xbc99dc6f	-0.018781869
182	0xbdaa3dbf	-0.083125584
183	0xbd8966c1	-0.06709052
184	0xbd6691e7	-0.056291487
185	0x3d8493d4	0.064735085
186	0x3c8ea9c4	0.017414935
187	0xbd07f7a2	-0.033195145
188	0xbdb45757	-0.08805721
189	0xbcc8cb64	-0.024511047
190	0x3da2d7f5	0.07951347
191	0x3d40c1c1	0.047059778
192	0xbdb2fcb5	-0.08739606
193	0x3d27d76c	0.040976927
194	0xbda37ecb	-0.07983168
195	0x3d24626b	0.04013292
196	0x3db0377d	0.086043335
197	0xbd6f9287	-0.05848935
198	0x3c8aae13	0.016928708
199	0x3d0dc247	0.034609105
200	0x3d87bdb5	0.066279806
201	0x3cec638e	0.028856065
202	0x3d9394ec	0.07206139
203	0xbd6d7687	-0.057974365
204	0x3ce802b8	0.028321609
205	0xbd36b505	-0.044606227
206	0x3d734892	0.05939538
207	0xbdaa8700	-0.083265305
208	0xbcc80e52	-0.024420891
209	0x3d487738	0.04894182
210	0xbd9091d6	-0.07059066
211	0x3d34401a	0.044006445
212	0x3cf1230b	0.029435655
213	0xbd702689	-0.0586305
214	0xbcff0da8	-0.031134441
215	0xbd8273b9	-0.063697286
216	0xbd883b81	-0.066519745
217	0xbd8ee574	-0.069773585
218	0xbcf28b10	-0.029607326
219	0x3d403245	0.04692294
220	0xbd1b1a59	-0.037866924
221	0xbb842fb6	-0.004034008
222	0xbd228dd6	-0.039686047
223	0xbda17cf3	-0.0788516
224	0xbc4322f4	-0.011910189
225	0x3dac47db	0.08412143
226	0xbd842871	-0.06453026
227	0x3d232b41	0.039836172
228	0x3d89f3c7	0.0673595
229	0x39df62cb	0.0004260748
230	0xbcf6fea9	-0.030150728
231	0xbd92343d	-0.0713887
232	0x3da2a432	0.07941474
233	0x3c598a78	0.013277642
234	0x3d3d3ba6	0.046199463
235	0xba8f0997	-0.0010912892
236	0xbd62c4a8	-0.055363327
237	0xbd665c8c	-0.056240603
238	0xbdad16aa	-0.084515885
239	0xbd6f911b	-0.058487993
240	0xbd93cf9a	-0.07217331
241	0x3d7336e8	0.059378535
242	0xbd1d7ae2	-0.03844727
243	0xbc7a2880	-0.015268445
244	0xbd0542eb	-0.03253452
245	0xbcc481f5	-0.02398775
246	0x3d5bcd81	0.05366278
247	0x3cd06edf	0.025443492
248	0xbd9fff9e	-0.07812427
249	0xbcfd4427	-0.030916287
250	0x3d73ae38	0.05949232
251	0x3cfa51e6	0.03055663
252	0xbc16cfdf	-0.009204834
253	0x3d2537b6	0.040336333
254	0xbd17594a	-0.036950387
255	0xbd9d6bc7	-0.076865725

linear3.weight f4 [128, 128]
0	0x3d24ea03	0.040262233
1	0x3d901508	0.070352614
2	0x3cee68ec	0.029102765
3	0xbda220ce	-0.07916413
4	0xbd15844b	-0.036503118
5	0x3c9d0659	0.019168066
6	0x3d88e992	0.06685175
7	0xbca4bb0c	-0.020108722
8	0x3d5cdd0b	0.05392174
9	0xba39fd89	-0.00070949696
10	0x3cb83dea	0.02249046
11	0xbaeb5477	-0.001795425
12	0xbbb79f12	-0.0056036795
13	0x3cd2afcc	0.025718592
14	0xbcb17707	-0.021663202
15	0x3cbfc12d	0.023407543
16	0x3c534d82	0.012896897
17	0xbd14a228	-0.036287457
18	0xbc04e32a	-0.008110801
19	0x3da6e836	0.081497595
20	0x3d548580	0.051885128
21	0xbd59ac40	-0.053142786
22	0x3cadb81e	0.021205958
23	0x3cb482dc	0.022035055
24	0xbd1f78c3	-0.038933527
25	0xba91e73f	-0.0011131539
26	0x3da88f4f	0.08230459
27	0xbdb2d969	-0.08732874
28	0x3d83818c	0.064211935
29	0xbd18c15e	-0.037293784
30	0x3da53681	0.080670364
31	0xbd500c3b	-0.050792914
32	0x3d1f72be	0.038927786
33	0xbd99c4ef	-0.07508265
34	0xbd45a254	-0.04825051
35	0xbcf16c88	-0.029470697
36	0x3d0a0db1	0.033704463
37	0x3d77e185	0.060517807
38	0xbd95a962	-0.07307698
39	0x3d914c99	0.07094688
40	0x3c811a8f	0.015759734
41	0xbda8f4bb	-0.08249804
42	0xbd8d4be9	-0.06899244
43	0x3d836b9d	0.0641701
44	0x3d39e9d5	0.045389015
45	0x3d5da535	0.05411263
46	0x3cf77048	0.030204907
47	0x3d39696f	0.045266565
48	0x3d122974	0.035684064
49	0xbdabcb85	-0.08388428
50	0xbda0a0b5	-0.078431524
51	0xbdb24fd3	-0.087066315
52	0xbd5ce512	-0.053929396
53	0x3d95fae6	0.07323246
54	0x3dae668e	0.085156545
55	0x3c7f8e66	0.015597915
56	0xbc3eb670	-0.011640176
57	0xbd8a0466	-0.0673912
58	0xbd8a1d60	-0.06743884
59	0xbd2ea29b	-0.04263554
60	0x3aa2a641	0.0012409167
61	0x3cf50c69	0.029913144
62	0xbbd48265	-0.006485271
63	0x3d9aa518	0.075510204
64	0x3d9d4d63	0.07680776
65	0xbc68a344	-0.014199082
66	0x3d4c91ff	0.04994392
67	0x3b82d65b	0.0039928383
68	0x3d578f7d	0.052627075
69	0xbd3e5bc6	-0.04647424
70	0xbd8ed5b2	-0.06974353
71	0xbcf84df3	-0.030310607
72	0x3d472e05	0.048627872
73	0x3d75698e	0.059915118
74	0xbda3b1dd	-0.07992909
75	0x3d844b56	0.06459682
76	0xbd795717	-0.06087407
77	0xbd203b9d	-0.03911935
78	0xbd82764a	-0.06370218
79	0xbc7381ae	-0.014862461
80	0xbd2d7069	-0.04234353
81	0xbd93b21a	-0.072117046
82	0xbd6b9466	-0.05751457
83	0x3d3b3481	0.04570437
84	0xbb6b3849	-0.0035891703
85	0x3d357146	0.04429748
86	0xbd42e78b	-0.047584098
87	0x3d8499b0	0.06474626
88	0xbc6b5947	-0.014364547
89	0xbc91e254	-0.017808117
90	0x3d1d6b57	0.038432445
91	0x3d6b6ecb	0.057478707
92	0x3cc4b025	0.024009774
93	0xbc849c70	-0.016187876
94	0xbd4c8546	-0.049931787
95	0xbda51118	-0.08059901
96	0x3bc8b2e2	0.00612484
97	0x3cfdfddb	0.031004837
98	0xbd978db9	-0.07400078
99	0x3c3bef0f	0.01147057
100	0x3caf8add	0.02142852
101	0x3c2f3016	0.010692617
102	0x3c3b82cb	0.011444758
103	0x3cf63893	0.030056274
104	0xbbc3748f	-0.0059648226
105	0xbd519358	-0.05116591
106	0x3d406aba	0.046976782
107	0xbd1f7551	-0.03893024
108	0xbd2991a3	-0.041398656
109	0xbd90ed63	-0.07076528
110	0xbd81a0f3	-0.06329527
111	0xbd97ef96	-0.07418744
112	0x3d8bb80b	0.06822213
113	0xba5cf6f9	-0.0008429136
114	0x3cad06df	0.02112144
115	0x3ca18398	0.01971607
116	0xbda86ff3	-0.082244776
117	0xbd8d0edd	-0.068876006
118	0xbd871887	-0.06596475
119	0x3d50705e	0.05088841
120	0xbc23e907	-0.0100042885
121	0x3c5c1038	0.013431601
122	0x3d635c9a	0.055508234
123	0xbd7c13bd	-0.06154226
124	0xbca20cf1	-0.019781562
125	0xbd938982	-0.07203962
126	0x3d6adb3b	0.05733798
127	0xbd2580f0	-0.040406168
128	0xbd8b26db	-0.067945205
129	0xbdab218b	-0.08356007
130	0xbd0bd47f	-0.0341382
131	0x3cf6a899	0.03010969
132	0x3cc0061a	0.02344041
133	0x3d6213cf	0.055194672
134	0x3d2d1d4d	0.04226427
135	0x3d713531	0.058888618
136	0x3b983563	0.004645036
137	0xbd18239c	-0.037143335
138	0x3cc58acc	0.024114035
139	0x3dcbfc5a	0.099602416
140	0x3d2194a1	0.039448384
141	0x3bc397a6	0.0059690056
142	0xbdc51c93	-0.09624591
143	0xbc6f5711	-0.014608161
144	0xbd1da76d	-0.038489748
145	0xbcf72ad0	-0.030171782
146	0x3ca52797	0.02016048
147	0xbc944bc5	-0.018102536
148	0x3d9e15b2	0.07718982
149	0x3d7688e7	0.060189154
150	0xbd65be9c	-0.056089982
151	0xbb6bde6c	-0.0035990728
152	0x3d9aa51b	0.075510226
153	0x3da9439e	0.0826485
154	0x3da7c2c0	0.081914425
155	0x3cf0cac4	0.029393561
156	0xbda212ff	-0.079137795
157	0x3cb8a34b	0.022538802
158	0x3ddfbc75	0.10924617
159	0xbd14b33e	-0.03630375
160	0x3d2d2c6b	0.04227869
161	0x3df7f65d	0.12107537
162	0xbd41eb13	-0.047343325
163	0x3d0befff	0.034164425
164	0x3d47ca40	0.048776865
165	0xbcb35d79	-0.021895157
166	0x3d920586	0.0712996
167	0xbd615ab0	-0.055018127
168	0x3cdb96ca	0.0268053
169	0xbccf8782	-0.02533317
170	0xbda446a1	-0.08021284
171	0xbda034bf	-0.078225605
172	0x3d0a0df3	0.03370471
173	0x3db2f497	0.08738058
174	0xbd302e5b	-0.043012958
175	0xbd1cd65e	-0.038290374
176	0xbc9d42b0	-0.019196838
177	0xbd8aa56f	-0.06769835
178	0x3d54e573	0.051976632
179	0x3d721e54	0.059110954
180	0xbd248904	-0.04016973
181	0x3ca9e30e	0.02073815
182	0x3be9da0f	0.0071365903
183	0xbb6385ed	-0.0034717277
184	0x3d7e04bf	0.062016245
185	0xbb8127aa	-0.003941496
186	0xbb357ee2	-0.0027694036
187	0xbc4bf3df	-0.01244828
188	0x3d1fa206	0.038972877
189	0x3c0919d4	0.008367974
190	0x3da58226	0.080814645
191	0x3da187bd	0.07887218
192	0x3cc7bd06	0.024382126
193	0xbda02a25	-0.078205384
194	0x3dacb915	0.08433739
195	0x3cb4356a	0.021998126
196	0xbd5dd3ec	-0.054157183
197	0xbcc1ce5b	-0.023657968
198	0x3da36ad6	0.07979362
199	0x3d8196d7	0.063275985
200	0x3cf3cd07	0.02976085
201	0x3d795bff	0.06087875
202	0xbd2b2b4a	-0.04178933
203	0x3debba4f	0.11510145
204	0x3d048654	0.032354668
205	0x3db2c7ea	0.08729537
206	0xbdcc1667	-0.099652104
207	0x3d66747e	0.05626344
208	0xbda4caae	-0.080464706
209	0x3e04b9a8	0.12961447
210	0xbc95d65a	-0.018290687
211	0x3dbccc3b	0.09218641
212	0xbcd503ac	-0.026002727
213	0xbd15b4ce	-0.036549382
214	0x3d855419	0.06510181
215	0xbd9bd820	-0.07609582
216	0x3cd9b5ea	0.026576001
217	0xbd9b0586	-0.07569413
218	0xbd3bb9cd	-0.04583149
219	0x3d8cbe1d	0.06872199
220	0xbc138a5a	-0.009005154
221	0x3db249a7	0.08705454
222	0x3d395445	0.04524638
223	0xb9e31424	-0.0004331182
224	0xbc84572c	-0.016154848
225	0xbdb844ff	-0.08997535
226	0xbd9a9362	-0.07547642
227	0xbcaafd54	-0.02087275
228	0x3dba41ad	0.09094558
229	0x3d90e595	0.07075039
230	0x3d5d4f1b	0.05403052
231	0x3d4e2650	0.050329506
232	0xbdb4edfb	-0.08834454
233	0x3d8f4fa3	0.069976114
234	0x3dadc259	0.084843345
235	0x3ce0ceae	0.027442303
236	0x3d6ed8d2	0.058312245
237	0xbd9e6db3	-0.07735767
238	0x3d0e655a	0.034764625
239	0x3d98d549	0.07462556
240	0x3d96a2dd	0.073552825
241	0xbd73dbfa	-0.059535958
242	0xbd37b2b1	-0.044848148
243	0x3d3df1ea	0.046373285
244	0x3d141fc0	0.03616309
245	0xbd5940c7	-0.053040292
246	0x3d24d04a	0.040237702
247	0xbc18b3e7	-0.009320236
248	0x3d1c2a64	0.038126364
249	0x3dc57cdd	0.096429564
250	0x3ce61dcc	0.02809038
251	0xbcef02a8	-0.029176071
252	0x3db705c9	0.0893665
253	0x3c4b90b5	0.012424638
254	0x3dc02e93	0.09383883
255	0x3da60e3d	0.081081845

linear4.weight f4 [3, 128]
0	0xbcc89636	-0.024485689
1	0x3e4185ca	0.18898693
2	0x3b72a1e6	0.0037022769
3	0x3d6cd3cf	0.057819184
4	0xbd37de2b	-0.04488961
5	0xbdcffcfa	-0.10155673
6	0xbe0a71f5	-0.13520034
7	0xbac5bbd9	-0.001508589
8	0x3d8fbdc4	0.07018617
9	0xbda967e7	-0.08271771
10	0x3cde7f9f	0.027160464
11	0xbd826a16	-0.063678905
12	0xbca2bf1d	-0.01986652
13	0xbcc69041	-0.024238707
14	0xbd9a393a	-0.07530446
15	0xbd8d9ef6	-0.06915085
16	0xbda5c24c	-0.080937
17	0x3e1c6dce	0.15276262
18	0xb98cb786	-0.00026839616
19	0x3cfdc16f	0.030976025
20	0x3e4e43a2	0.20142987
21	0xbc611f0e	-0.013740314
22	0xbd946afe	-0.0724697
23	0x3e4e9f84	0.20178038
24	0x3db8ee12	0.09029783
25	0x3d0d8f91	0.034560744
26	0x3dbf5b7b	0.093436204
27	0xbdff03e3	-0.12451913
28	0xbd92fb30	-0.071768165
29	0xbe2e8af4	-0.17045194
30	0x3d0f1f31	0.034941856
31	0x3d8ccbff	0.06874847
32	0xbc423d15	-0.011855383
33	0xbdc1adf4	-0.09457007
34	0xbc7d249d	-0.015450624
35	0xbd80f854	-0.06297365
36	0xbd2ccee8	-0.04218951
37	0xbe04985c	-0.12948745
38	0xbe39b9d5	-0.18137296
39	0x3c76842b	0.01504616
40	0x3db30b78	0.08742422
41	0xbd92805a	-0.07153387
42	0x3cd02eaa	0.025412876
43	0xbe11cac4	-0.14237505
44	0xbe2d6885	-0.16934402
45	0xbd863053	-0.06552186
46	0xbe6fc40c	-0.2341463
47	0x3d5ee677	0.054419007
48	0x3d1b1ebd	0.03787111
49	0xbd801394	-0.06253734
50	0x3d99b23e	0.075047
51	0xbbccf054	-0.0062542353
52	0x3d785d80	0.060636044
53	0xbd52c8a6	-0.051460885
54	0x3d1e16c0	0.038595915
55	0x3d10c5f5	0.035345037
56	0xbd480742	-0.048835047
57	0xbc4237a5	-0.011854087
58	0x3dd9ec01	0.10640717
59	0x3d35dea4	0.04440178
60	0xbd8390b0	-0.06424081
61	0xbd26e623	-0.04074682
62	0x3e07d8d6	0.1326631
63	0xbd8426f6	-0.06452744
64	0xbdda8de2	-0.10671593
65	0xbdb4c6b6	-0.088269636
66	0x3dcbea69	0.099568196
67	0xbdacc0cd	-0.08435211
68	0xbd8c3c52	-0.06847443
69	0x3e3aa1cd	0.18225785
70	0xbdad91d7	-0.08475082
71	0xbe284e4e	-0.16436121
72	0x3cce10bb	0.025154462
73	0xbd1a3b45	-0.03765418
74	0xbc7bbf1f	-0.015365391
75	0xbd738b16	-0.059458815
76	0x3da6b16f	0.081393115
77	0xbda2ec6b	-0.079552494
78	0xbd92634e	-0.07147847
79	0xbc92fa3c	-0.017941587
80	0xbce26758	-0.027637169
81	0xbda24202	-0.07922746
82	0x3bbd83f6	0.0057835532
83	0x3c8ee01d	0.01744085
84	0xbe332835	-0.17495807
85	0xbc826860	-0.01591891
86	0xbd8158e4	-0.06315783
87	0xbe1a8bb6	-0.15092358
88	0x3e41f8f4	0.18942624
89	0xbd7d4115	-0.061829645
90	0xbe4ccbad	-0.19999571
91	0x3d12881f	0.035774346
92	0x3d297e96	0.041380487
93	0xbe409f3d	-0.18810745
94	0x3cda5746	0.026652943
95	0xbd8d46a2	-0.06898238
96	0xbd2036e2	-0.03911484
97	0xbe026a0f	-0.1273577
98	0x3dc61230	0.09671438
99	0xbc87ef64	-0.016593643
100	0x3d6cc334	0.057803348
101	0xbdc509df	-0.096210234
102	0xbe8c12fd	-0.27358237
103	0xbe5e4003	-0.21704106
104	0xbe0ccd66	-0.13750228
105	0xbd94892b	-0.07252725
106	0xbe4b4e11	-0.19853999
107	0xbd2e681e	-0.042579763
108	0xbbc64259	-0.0060503897
109	0xbd24fe1a	-0.040281393
110	0xbd806c5a	-0.062706664
111	0x3d9c1187	0.076205306
112	0x3e0746cf	0.13210605
113	0xbd0c41db	-0.034242492
114	0xbe629bad	-0.22129698
115	0xbc7f9f66	-0.015601968
116	0xbd9aedba	-0.07564874
117	0x3c163470	0.0091677755
118	0xbdc342eb	-0.09534248
119	0xbde51ad9	-0.111867614
120	0xbd2d7753	-0.042350125
121	0xbe0a1410	-0.13484216
122	0x3e2167b2	0.15762213
123	0xbc905e35	-0.017623046
124	0xbceedef3	-0.029159045
125	0xbd7c194d	-0.061547566
126	0x3de45069	0.111481495
127	0x3da9ed9b	0.08297273
128	0xbd00cd2f	-0.03144568
129	0xbe88c3f2	-0.26711994
130	0xbd65c16b	-0.05609266
131	0xbda2da0c	-0.079517454
132	0x3e5dc968	0.21658862
133	0xbe17476e	-0.14773342
134	0xbe5628dc	-0.20914024
135	0x3d593bdb	0.0530356
136	0xbd2a4c39	-0.041576598
137	0x3e7e367d	0.24825473
138	0xbb41cc40	-0.0029571205
139	0xbe606a1e	-0.2191548
140	0xbdd20e92	-0.10256685
141	0x3d19526f	0.03743213
142	0x3da6a025	0.08136014
143	0x3dd24b93	0.10268321
144	0x3db3c095	0.087769665
145	0xbdce1c98	-0.100640476
146	0xbe1d1b97	-0.15342556
147	0xbd39a4c6	-0.045323156
148	0xbdf28726	-0.11842184
149	0xbd08fcbb	-0.033444148
150	0x3dd7b3f8	0.10532373
151	0xbe0b1d0e	-0.13585302
152	0xbe37046f	-0.17872785
153	0xbd5dfda8	-0.054196984
154	0x3de51f72	0.11187638
155	0x3c2e8e9f	0.010654121
156	0xbd9c2ab5	-0.07625333
157	0x3e433c00	0.19065857
158	0x3e112daa	0.14177576
159	0xbdfc410c	-0.12317094
160	0x3e6388d3	0.22220163
161	0xbdb82ce3	-0.089929365
162	0xbd627ee2	-0.055296786
163	0xbc160a06	-0.009157663
164	0x3e9e3f9d	0.30907908
165	0xbea461ee	-0.32105964
166	0x3c41cfd5	0.011829336
167	0xbdf2857c	-0.118418664
168	0xbd4144ab	-0.047184628
169	0x3c3bf9f4	0.011473168
170	0xbcbfc2da	-0.023408342
171	0x3c8e2aab	0.01735433
172	0xbbbaf7bb	-0.0057058013
173	0x3e39f031	0.18158032
174	0x3e072d70	0.13200927
175	0x3b5cced1	0.0033692608
176	0xbd92d1a5	-0.07168893
177	0xbd354cbd	-0.044262636
178	0x3c61ccf5	0.013781776
179	0xbdbabe75	-0.09118358
180	0x3bc9cdaa	0.0061585503
181	0x3dc7890f	0.09742939
182	0xbdb0e1f5	-0.08636848
183	0x3d1edb26	0.038783215
184	0xbcad5294	-0.02115754
185	0xbdd90999	-0.10597534
186	0xbdda9936	-0.10673754
187	0xbdb57b66	-0.08861427
188	0x3d94f0cc	0.07272491
189	0x3d2d6af9	0.042338345
190	0x3d5b5ad7	0.05355343
191	0xbced1ebc	-0.02894532
192	0xbe05fc4b	-0.13084523
193	0xbcf35e66	-0.029708099
194	0x3cefaa81	0.029256107
195	0xbd9c0e94	-0.07619968
196	0x3e004c54	0.12529117
197	0xbdef375b	-0.1168048
198	0x3d4d7352	0.050158806
199	0x3e81dd03	0.2536393
200	0x3e45b80d	0.19308491
201	0x3e0abe22	0.13549092
202	0x3ceee14c	0.029160164
203	0x3d14629f	0.036226865
204	0xbda0a50c	-0.0784398
205	0xbd9b72de	-0.075902686
206	0xbd27fd63	-0.041013133
207	0xbd1b0b25	-0.037852425
208	0x3d792c81	0.060833458
209	0x3cf19efd	0.029494757
210	0x3b0d9e38	0.0021609198
211	0x3ccaea63	0.024769967
212	0xbd81132f	-0.06302487
213	0x3cf96941	0.030445697
214	0x3de6e5bb	0.11274286
215	0xbcde5e23	-0.027144497
216	0xbdbffcd3	-0.09374394
217	0xbe5650e6	-0.20929298
218	0x3d888faa	0.06668027
219	0xbbdc93cf	-0.0067314873
220	0xbd02b03b	-0.031906348
221	0x3e4316d7	0.19051681
222	0x3da64ba0	0.08119893
223	0xbda22652	-0.07917465
224	0xbd43a09a	-0.047760583
225	0x3e41aa55	0.18912633
226	0xbdbb86d8	-0.09156579
227	0x3e7120d2	0.23547676
228	0x3e695338	0.22785652
229	0xbe526025	-0.20544489
230	0x3e091b49	0.13389315
231	0x3e52969b	0.20565264
232	0xbe8c4227	-0.2739422
233	0xbcf70251	-0.030152472
234	0x3e910150	0.28321314
235	0x3e7b6373	0.24549656
236	0xbc786aa8	-0.015162148
237	0xbde0736e	-0.109595165
238	0xbda1aef0	-0.07894695
239	0x3da7d513	0.081949376
240	0xbdd23fc6	-0.1026607
241	0xbdc85a74	-0.097828776
242	0x3d81efd8	0.06344575
243	0xbdddfc06	-0.10839085
244	0x3dc9ffb7	0.09863227
245	0x3d9d8860	0.07692027
246	0xbde36b05	-0.11104397
247	0xbd77a5f5	-0.060461003
248	0x3d3947f3	0.04523463
249	0x3e956dd9	0.2918537
250	0xbde4c069	-0.11169512
251	0xbd50cfdd	-0.050979484
252	0x3e1e10ad	0.15436049
253	0x3d357d0e	0.044308715
254	0x3dff28e8	0.12458974
255	0x3e442de0	0.19158125
