saved_best_model_tbn.pt (torch, 142673 bytes, 4 tensors)

linear1.weight f4 [128, 13]
000000 5f dd 4f bd df 6f b0 3e 0f 16 06 be 0e fa 28 3e
       -0.050748225 0.3446035 -0.13094352 0.16501638
000010 6c 5a ce 3f 03 51 e3 3f 7c 01 42 be 5e 29 2a 3f
       1.6121345 1.7759098 -0.18945879 0.6646937
000020 88 2d 2e 3f 06 aa d4 bf 7b 3d 2e be 72 1b 6f 3d
       0.68038225 -1.6614387 -0.1701564 0.058375783
000030 83 ca 1b be 8e 95 42 3d 0c cd f2 ba 85 84 61 3f
       -0.15213971 0.047505908 -0.0018524243 0.88092834
000040 12 67 5f bd 1e 47 da 3f e4 71 b3 3e fd 81 f8 bd
       -0.054541655 1.7052953 0.3504783 -0.12134168
000050 fd 55 82 3f 51 3b 1e 3f 01 3a dc 3f 5b d5 0b be
       1.0182492 0.6180926 1.7205201 -0.13655607
000060 6b 7b 87 3e b8 96 09 bb 22 51 4c 3f 99 3d 61 bd
       0.26461348 -0.0020994376 0.798113 -0.054990385
000070 5d 96 72 3f 2f ee ed 3d 9d 2b 3d c0 15 6e a9 3f
       0.94760686 0.116176955 -2.955787 1.3236719
000080 eb 07 a7 3d ed 6b a2 3f d6 cf 50 3f db aa e0 bf
       0.08155807 1.2689186 0.8156713 -1.7552141
000090 7f d2 3c 3e 27 f5 55 bd c5 78 fa b9 91 55 97 3f
       0.18439673 -0.05223575 -0.00047773696 1.1822988
0000a0 d9 a9 97 bd 50 15 97 3f ef e0 fb 3d ad 2d e1 3f
       -0.07405443 1.1803379 0.12298762 1.7592064
0000b0 d7 59 c6 3f 36 77 d5 be 91 02 8c bf 75 06 c9 3f
       1.5496167 -0.41692513 -1.0938283 1.5705096
0000c0 a9 2c cd 3f 96 38 2f 3e df 8b 2e be bc 6b 0b be
       1.6029254 0.1711143 -0.17045544 -0.13615316
0000d0 f7 bd 09 3f 66 7e c9 bd a0 ab 04 bf f7 f3 e6 bd
       0.5380549 -0.09838562 -0.5182438 -0.11277001
0000e0 cb da 92 bf 67 65 c1 be c4 62 81 3e 0e 39 be bf
       -1.147302 -0.37772676 0.25270665 -1.4861162
0000f0 c2 dd bf bf 68 a7 cc bf 6b ad b8 3c 68 cd 64 3e
       -1.498955 -1.5988588 0.02254363 0.22343981
000100 7f 4d 93 bd fd de 83 be 35 b3 c8 3e 14 f6 cb 3e
       -0.071925156 -0.25756064 0.39199224 0.3983618
000110 76 a2 50 be fe cf 3a 40 2d bc b3 bf a7 ea b2 3d
       -0.20374474 2.9189448 -1.4041802 0.08736163
000120 13 d6 b9 bf f7 f3 c6 bf 9e d4 98 3f 3d 5a 9f 3e
       -1.4518455 -1.5543202 1.1939886 0.31123534
000130 27 fd 0a 3e d2 03 3b be 1b 4f 11 3f 60 17 bc 3d
       0.13573132 -0.18263176 0.5676133 0.09184146
000140 83 ab 83 3f 6b e0 4d 3e 47 b2 ed 3f b1 77 85 3f
       1.0286716 0.2010514 1.8570031 1.0427152
000150 ef 5b 4f 3e d1 f9 4f 3e 9f 09 8c 3e 8c cc 33 3f
       0.20249914 0.20310141 0.2735109 0.7023399
000160 40 38 04 3e 37 6a 29 3e 2a ee 7e 3e 48 ff 1a bf
       0.12912083 0.16544424 0.2489554 -0.6054578
000170 63 9a 10 bd 93 43 7f bf e4 46 62 bd a2 b1 93 bf
       -0.035303485 -0.99712485 -0.055243388 -1.1538584
000180 81 d4 b6 bf 0a 57 01 3e 6f 88 bd bf 28 ea c6 bf
       -1.4283601 0.12630859 -1.4807261 -1.5540209
000190 40 9a ab bf 69 6a 85 bd 0d 59 ce 3e a3 da 06 3f
       -1.3406448 -0.06514437 0.40302315 0.52677363
0001a0 b0 0f c8 3e a7 ee c3 3d 84 80 b1 3c 6d a3 47 be
       0.3907447 0.09567004 0.021667726 -0.19495936
0001b0 e7 a7 0f c0 28 3a c5 3f 45 51 a2 3e f4 9f 8e bd
       -2.244623 1.5408373 0.3170263 -0.069641024
0001c0 c6 a4 88 3e 3f 5d b8 bf 9e 36 5d 3b e9 e8 7a 3e
       0.26688212 -1.4403456 0.0033754478 0.2450291
0001d0 7b ba 83 3e 7a 8a ed 3e 25 96 ef 3d a0 dd f3 3e
       0.2572821 0.46394712 0.1169856 0.47630024
0001e0 6f 95 2f bd b2 de 14 c0 ca ab d4 3f 3c d5 2b be
       -0.04286712 -2.3260922 1.6614926 -0.16780561
0001f0 35 71 b7 3f 09 03 ae 3f ef e7 8e bf ad 8a 72 be
       1.4331423 1.3594676 -1.116453 -0.23685713
000200 bf a8 ed bc 0d 1b 00 bd 33 ed 97 3c cb ef 1e be
       -0.029011128 -0.031275798 0.018545723 -0.15521161
000210 48 86 2b bf 82 05 d7 bd f4 d8 c7 bf 75 f9 09 40
       -0.6700177 -0.104990974 -1.5613084 2.1558506
000220 e2 52 90 3e 18 a7 7e 3c cf 7d 64 3e 88 c1 ae bf
       0.28188235 0.015542768 0.22313617 -1.3652811
000230 4d e4 47 be 6f 47 b1 3e 3a 81 53 3e b7 ed ba bf
       -0.19520684 0.34624812 0.20654765 -1.4603795
000240 cd de 70 3d f9 ac 2e 3d cf ca 8f be 40 38 fd 3f
       0.05880623 0.04264543 -0.28084418 1.9782791
000250 5b 08 c3 bf 00 ab e6 be 55 e4 85 3f 1b 5b a4 3f
       -1.5236925 -0.45052338 1.0460306 1.2840303
000260 c2 7e 8e bf b6 3a 80 3e fa 2e d6 be a8 38 45 be
       -1.1132433 0.25044793 -0.41832715 -0.19259894
000270 20 40 96 be 80 22 f7 bb 39 54 83 be 21 d6 85 be
       -0.29345798 -0.0075419545 -0.25650194 -0.2613993
000280 ac 55 a4 bf 81 fc cc be 3d 9b 77 be 94 bd b2 bf
       -1.2838645 -0.40036395 -0.24180312 -1.3964105
000290 a4 01 9d bf 1d 98 80 bf d7 ab 21 bd 59 9b 30 be
       -1.2266126 -1.0046421 -0.03947052 -0.1724676
0002a0 f5 cd f5 bc 4e 67 59 3e 8c c7 4d be 98 9a 49 3e
       -0.030005435 0.21230814 -0.20095652 0.19687879
0002b0 8c 2a 62 3e 71 c8 0a c0 18 6d 84 bf 68 3a da 39
       0.22086543 -2.168484 -1.0345793 0.00041623716
0002c0 3e 67 dd 3f ba 6c c4 3f ca 78 a5 3f fe a3 43 3e
       1.7297132 1.5345681 1.2927487 0.19105527
0002d0 c4 cf 96 3d f6 5b 2c 3d 92 b9 21 3f f5 66 36 be
       0.07363847 0.04207989 0.6317378 -0.17812712
0002e0 cc 9d 84 3d 4f 4d 77 3e 14 d8 a6 bf 9f 08 c0 3f
       0.0647541 0.24150585 -1.3034692 1.5002631
0002f0 84 ff 2a bc 1f f2 89 be fb 42 02 bf bf d0 66 3f
       -0.010436896 -0.26942536 -0.50883454 0.9016227
000300 f3 c0 69 bd b3 d5 34 be 32 60 a1 be 2f 10 49 be
       -0.057068776 -0.17659645 -0.31518704 -0.1963508
000310 e5 70 c0 bd 34 ec 42 3d 59 c6 c9 bd 19 cb e7 3f
       -0.09396533 0.047588542 -0.09852285 1.8108855
000320 fb 0f 0a 3e 46 ae b9 3d 0e 04 8b bf 2d 70 8c bf
       0.13482659 0.09066443 -1.0860612 -1.0971733
000330 6c 81 97 3f 54 f7 d8 3c 05 61 02 3e 5d 35 26 be
       1.1836371 0.026485123 0.12732323 -0.16231294
000340 6b 4c 72 bd 1a b1 c1 be 57 05 8d bf 9d 62 04 3e
       -0.05915491 -0.3783043 -1.1017255 0.12928243
000350 0b f9 93 c0 6b b9 59 40 57 bc 86 3e ec 70 01 40
       -4.6241508 3.401942 0.26315567 2.0225172
000360 73 f0 13 40 a0 78 cd bf 78 88 32 be 32 21 11 3d
       2.3115509 -1.6052437 -0.17434871 0.03543205
000370 55 4e 9f 3e 7c 33 2f be 24 42 42 bd de fd 87 bf
       0.3111445 -0.17109483 -0.047426358 -1.0624349
000380 51 ec 8a 3d c8 10 f4 bf 39 2e 25 be d3 82 a1 3e
       0.06783355 -1.9067621 -0.16130914 0.31545123
000390 5c c5 ac bf cd d4 8f bf dc 78 95 bf 47 f1 07 be
       -1.3497729 -1.1236817 -1.1677508 -0.13275634
0003a0 cd 3b 84 3e 16 d3 f1 bc fb 47 17 bc ea 14 16 be
       0.25826874 -0.029519599 -0.00923347 -0.14656416
0003b0 21 43 ff bd 35 11 20 3e 5c 01 92 3f 22 29 d3 3f
       -0.12463976 0.15631564 1.1406665 1.6496928
0003c0 f9 4c 79 be 15 be 33 c0 cb 2e 21 c0 e9 a2 95 bf
       -0.24345769 -2.8084767 -2.518481 -1.1690341
0003d0 11 1f 05 be c8 5e bd 3d 75 d0 af bd ff f6 f5 bd
       -0.13000132 0.09246594 -0.08584682 -0.120100014
0003e0 67 1f c0 3e 8f 3f 8a 3f e1 00 6d 3d c4 a3 b0 3f
       0.37523958 1.0800647 0.057862166 1.3799977
0003f0 c7 cd ee bf a0 4a a2 3c e1 81 d0 bf 69 65 92 bf
       -1.8656548 0.019810975 -1.6289636 -1.1437198

linear2.weight f4 [128, 128]
000000 78 c7 04 bd c0 3f b0 bc 66 ee bb bd 4e cb 99 bc
       -0.03241679 -0.021514773 -0.0917633 -0.018773701
000010 6c 4d d7 bd 03 53 25 bd 85 cd 22 bd a2 2d d3 bd
       -0.10512814 -0.04036237 -0.03974678 -0.10311438
000020 37 ce c9 3d 11 87 82 3d 6f 30 47 3b 29 89 41 3d
       0.098537855 0.06373418 0.003039386 0.047249947
000030 58 a2 94 bd 0f 83 9d 3d 53 c8 89 3d 81 c0 e3 bd
       -0.07257527 0.07691013 0.06727662 -0.111207016
000040 63 a3 1d 3d 7b cc ce 3b e7 85 f2 bc b7 fb 39 3d
       0.038485896 0.006310997 -0.029604865 0.04540607
000050 2c f4 37 bd 66 aa 07 3d 73 7e f9 3b 04 a8 f3 bd
       -0.044910595 0.03312149 0.007613951 -0.11897281
000060 ec d1 72 bd 73 0d 80 bd 9e bb c3 bd 45 da db 3d
       -0.05928223 -0.06252565 -0.095572695 0.10734991
000070 bc f0 6c 3d c0 3e 09 3e 2d 7e 42 3c 68 41 43 bd
       0.05784677 0.13402843 0.011870903 -0.047669798
000080 8a ad a1 3b 17 dd c2 3d f9 1c 9a bd 5e d6 02 bb
       0.0049340175 0.09514826 -0.07525057 -0.0019964199
000090 0c d5 9a 3d 39 49 05 bd f9 b3 c1 bd 3f aa 2b bc
       0.07560167 -0.032540534 -0.09458155 -0.010477602
0000a0 29 b8 ce 3c 53 33 fc bc cb 88 28 bd 87 18 97 bd
       0.025234299 -0.030786192 -0.04114608 -0.07377725
0000b0 77 41 36 bd b4 69 0e be c0 18 8a 3d 69 ed 14 3d
       -0.044496026 -0.1390751 0.06743002 0.036359224
0000c0 5f 03 01 3e 7d 5e dc 3d fd 69 33 3d 4a cc 9d 3c
       0.12598942 0.1076021 0.04380225 0.019262452
0000d0 63 37 4b bd 2f 06 8a bd 7e 37 30 3c 8d f0 4e bd
       -0.049613368 -0.06739461 0.010755418 -0.050522376
0000e0 94 33 a6 3c ad 78 6e bd 51 58 99 bd e3 c8 42 3d
       0.020288266 -0.058220554 -0.07487548 0.04755486
0000f0 8a 57 34 3d f3 f7 62 3c 0a 9f 87 bc a3 9a 05 3e
       0.044028796 0.013853061 -0.016555328 0.1304727
000100 01 33 11 bd 2a c7 6e bc a9 2a e3 bd cf ae 78 bd
       -0.03544903 -0.014573852 -0.11092121 -0.060713585
000110 aa d9 71 3d 9f d6 66 bd 9c 5d 12 3d e8 07 ab bd
       0.05904547 -0.056357022 0.035733804 -0.08351117
000120 73 54 b3 bd 76 35 ed bd 6c f5 a7 bd e8 a3 bf bd
       -0.08756342 -0.115824625 -0.082011074 -0.093574345
000130 1d 7e 0d be e0 b5 e4 bc 7f 7d 02 3e 8c ba 1d 3d
       -0.1381764 -0.027918756 0.12743185 0.038507983
000140 7a 4d 70 bd 85 71 a4 bd 97 d2 9a bd 2b 2a 4c bb
       -0.058667637 -0.08029465 -0.07559698 -0.0031153064
000150 59 ef 6d bc f3 b8 88 bb 6b 4e b7 3b db 53 d0 3d
       -0.014522397 -0.0041724383 0.005594065 0.10172244
000160 0f 27 ba 3d 45 8f c1 bb b3 f2 a4 bb 4d 63 66 3d
       0.09089481 -0.0059069716 -0.005033815 0.056247044
000170 1a 37 a7 bd 08 49 ba bd 49 18 40 3d 36 c6 3f 3d
       -0.08164807 -0.09095961 0.04689816 0.046819888
000180 23 4a fd 3d 1d 97 78 bd e2 9b 06 3d 82 18 53 bd
       0.12367656 -0.060690988 0.032863505 -0.051537044
000190 21 79 c9 bc 29 e1 cf 3c 94 bd c9 bd 5e cd eb 3c
       -0.024593892 0.02537592 -0.09850612 0.02878445
0001a0 68 b5 d0 3a b5 57 49 bd 4b fa 88 3b 9c 56 67 3d
       0.0015923204 -0.04915591 0.004180228 0.05647908
0001b0 52 b2 04 bd 05 1f de bd 74 be bb 3c ec 12 af 3c
       -0.032396622 -0.1084576 0.022917964 0.021371327
0001c0 18 51 3d 3d c6 b5 61 3d 32 92 59 bd 36 64 31 3d
       0.046219915 0.055104993 -0.05311794 0.04330846
0001d0 2b 37 c1 3d 7e 03 c2 bd b1 45 f2 3c d0 80 0d be
       0.094343506 -0.09473322 0.029574247 -0.1381867
0001e0 61 ec 33 bc 3c 5d ee 3d 6a 8a 4f 3d a6 df 9c 3d
       -0.01098165 0.11638877 0.05066911 0.07659845
0001f0 29 d9 06 bd 79 bc 84 bb 6e 26 e9 bd cb d6 41 3d
       -0.032921944 -0.004050788 -0.11384283 0.047323983
000200 70 75 88 bc b0 1d b8 3d fe c4 4b bd 24 ca 1a bd
       -0.016657561 0.089900374 -0.049748413 -0.037790433
000210 cc 9f 56 bc 1a 92 b9 3d 65 09 8f 3c 5b 5e 43 be
       -0.013099622 0.0906107 0.017460534 -0.19078963
000220 4d b1 17 be 6d ff 95 3d 39 e0 af bd 54 88 08 3e
       -0.14813729 0.07324109 -0.08587689 0.13333255
000230 5f af e2 3d 63 82 6f 3d d3 ae 9d 3d 3a af ab 3d
       0.11068606 0.058473956 0.07699361 0.08383031
000240 ea d8 0a be 2c 19 5c be 26 69 c0 3c aa 8e 1d 3e
       -0.13559309 -0.21493977 0.023487639 0.15386453
000250 f0 93 20 3e 26 9f 88 3d 56 48 f8 bc dc bc 48 3c
       0.15681434 0.0667098 -0.03030793 0.012252059
000260 67 e9 aa 3d 53 38 23 3e 60 d8 64 3c e8 ef e1 3c
       0.08345299 0.15939455 0.013967603 0.027580217
000270 72 25 43 39 98 55 4f 3d d8 a9 c1 bc 8d c0 0a be
       0.00018610599 0.050618738 -0.023640558 -0.13550015
000280 2d 7d 9a bd a1 38 23 be e1 1d 1a 3e a3 74 a7 3d
       -0.07543407 -0.15939571 0.1505046 0.081765436
000290 af 2d 02 3c 66 b1 c8 3b cd b4 10 be cd d6 34 3b
       0.007945462 0.006124663 -0.1413147 0.0027593852
0002a0 9a 2a 34 be ed 96 64 3e 7c f2 1d 3d 58 3c 13 3e
       -0.17594376 0.22323199 0.03856133 0.14378488
0002b0 f6 83 8a bd 17 c3 2e 3e 3c 63 0a be 12 69 2f 3d
       -0.06763451 0.17066608 -0.13514417 0.042824812
0002c0 5b b6 30 bd 2c 6e a4 bc 8b a2 fc 3d b1 8f a8 3c
       -0.043142658 -0.020072065 0.1233569 0.02057633
0002d0 6e b0 9c 3d 59 83 57 be 0d 7e d6 bc e0 8e d6 bc
       0.07650839 -0.21046199 -0.026183153 -0.026191175
0002e0 5f 35 22 3d 28 22 7a bb 15 a3 56 3e 43 78 51 bd
       0.03960168 -0.0038167331 0.20960648 -0.05114008
0002f0 8c c9 3c be fe cb ba 3d 9a dd 3f 3e 86 a1 63 3d
       -0.18436259 0.0912094 0.18736878 0.055573963
000300 42 f6 dc 3d 87 57 e1 3b d1 68 4e bd 68 aa 54 3d
       0.107891575 0.006876889 -0.05039293 0.051920325
000310 65 31 f2 3c 75 18 98 bd a6 85 8f 3d 6b 87 12 bd
       0.029564569 -0.0742654 0.07007913 -0.035773676
000320 74 52 ae 3d b1 1d e4 3c 89 8c 77 3a 9a 30 55 3d
       0.085118204 0.02784619 0.00094432436 0.052048303
000330 d7 38 36 3e 4b 1e 27 3d fb b8 8a bd e8 6c 0c bd
       0.1779512 0.040800374 -0.067735635 -0.03428355
000340 90 eb 99 bd c4 f3 b8 3d 5a d2 d6 3d 80 b5 f7 3d
       -0.07515633 0.090308696 0.1048934 0.12095165
000350 e2 da ed bb 24 8c 12 3d 75 3a 88 bd 88 a7 0d 3d
       -0.007258759 0.03577818 -0.06651775 0.0345836
000360 29 9b 1a bd 95 9b 2a be 88 56 37 be d6 21 72 bd
       -0.03774563 -0.16660912 -0.17904103 -0.0591143
000370 02 39 a1 3d 0b e8 12 bd 85 59 54 bd 00 a3 7f 3c
       0.078722015 -0.035865825 -0.051843185 0.015602827
000380 8a c7 61 3d 6d 59 aa bd 78 f0 ac bd 0c 85 a4 bc
       0.055121936 -0.08317838 -0.08444303 -0.020082973
000390 ec 29 04 be 0b 8c 06 3c 72 a7 e0 bd ec 98 c1 3c
       -0.12906617 0.0082121 -0.10969438 0.02363249
0003a0 cf d0 13 3c 59 d8 e9 bd 66 57 09 be 1d c8 0b 3d
       0.009021952 -0.11418218 -0.13412246 0.03412639
0003b0 2b 72 02 be 89 3d 2c bd af ca a1 bd fd 64 7a 3c
       -0.12738864 -0.042050872 -0.07899987 0.015282867
0003c0 86 2c 0f 3e 56 9b 33 be 3a 28 80 bc 98 67 7b 3d
       0.13981828 -0.17539725 -0.015644182 0.06137809
0003d0 81 39 00 be e9 80 d4 3d da 98 dd 3d 4e e9 53 3d
       -0.12521936 0.1037615 0.1082017 0.05173617
0003e0 9d 8e fc 3c 07 a7 5f be c0 4f a2 3d 74 0f 18 bd
       0.030829722 -0.2184106 0.07925367 -0.037124112
0003f0 00 d9 df bd e2 3f 8d 3d d8 ea 85 3d 64 4d 31 bd
       -0.10930061 0.0689695 0.065389335 -0.043286696

linear3.weight f4 [128, 128]
000000 95 45 93 3d 43 82 1d bb a9 30 84 bd 7e b7 a9 3d
       0.07191006 -0.002403394 -0.06454594 0.082869515
000010 f9 c0 46 3d e5 2e 3f 3d 9f b8 a7 3d 40 0b 6b 3d
       0.048523877 0.04667558 0.081895106 0.057383776
000020 ed 7f ae bc 8b 4d c3 3b 46 54 11 3c 97 e9 f2 3c
       -0.021301234 0.0059601716 0.00887019 0.0296524
000030 a5 17 c0 bd b3 4a 96 bd bd 71 a1 bd 51 c9 0c bd
       -0.0937951 -0.073384665 -0.07883022 -0.034371678
000040 8d b8 6b 3d ae 53 8f bd 0c a9 a9 3d 65 69 83 bd
       0.05754905 -0.069983825 0.08284196 -0.06416587
000050 9f 2e 95 bc c8 bd 4e bd ba df 62 3c d5 a9 21 bd
       -0.018210707 -0.05047396 0.013847286 -0.039468605
000060 96 be 3f 3d dd 2f 31 3d f8 3b 67 3d ff 53 8c bc
       0.046812616 0.043258537 0.056453675 -0.017129896
000070 73 fb 82 3c a2 94 5e 3d 9f ed 87 3d 86 87 7f 3d
       0.015989041 0.054340966 0.066371195 0.062385105
000080 d9 58 9a bd 4f 6b 88 bd 16 98 36 3d 4d 86 a8 bc
       -0.075364776 -0.066610925 0.044578634 -0.020571852
000090 8b 20 95 bd 67 87 1b 3d 79 18 6f bc 2d dc 34 3d
       -0.07281598 0.037970927 -0.014593237 0.04415529
0000a0 a3 83 8d 3d 11 a3 88 3c 9c 09 1b bb cc ba 89 3d
       0.06909873 0.016679319 -0.002365685 0.06725082
0000b0 31 b2 93 3c 2b 18 1f bd 7d 7d 1a bd 6c 22 90 3d
       0.018029304 -0.038841408 -0.03771733 0.070378155
0000c0 e3 b4 b8 3d 1e d8 62 3d 50 bb 0f bb 32 0b 7c bd
       0.090188764 0.055381887 -0.0021931715 -0.061534114
0000d0 95 0c ae 3d a5 d8 be bc 71 e1 a3 3c 57 b8 00 bd
       0.084984936 -0.023296664 0.02000496 -0.0314258
0000e0 bf 86 a3 3d 51 f4 85 bb cd 28 30 bc 6d 41 88 3d
       0.07984685 -0.0040879627 -0.010751915 0.06653104
0000f0 fb 03 b8 3d 53 1d 12 bc 68 0c ab bd c2 e8 62 bd
       0.08985134 -0.008918124 -0.08351976 -0.055397756
000100 e8 4f 9c bd 9d db 06 3d a5 23 8a ba f2 48 3c bc
       -0.076324284 0.032924283 -0.0010539187 -0.011492001
000110 13 1a 9c 3d 71 f0 86 3d a5 ee a5 bc b5 c0 91 3c
       0.07622161 0.06588829 -0.020255396 0.017792085
000120 1b a9 85 bb d1 ec 97 3d 76 96 01 bd 94 09 7b 3c
       -0.004078997 0.07418216 -0.03163763 0.015322108
000130 91 01 4c 3d e3 d4 6b bc 03 09 65 3d 5b ab c7 bc
       0.04980618 -0.014394018 0.055916797 -0.0243737
000140 ef 7a c1 3d 03 a1 83 3d e6 18 84 3d 98 ab 82 3c
       0.09447276 0.06427195 0.064500615 0.015950963
000150 69 aa 85 bd 2d 87 ab bd d0 06 79 bd 41 fd 14 bd
       -0.06526644 -0.08375392 -0.060797513 -0.036374334
000160 99 38 b6 bd 51 df 41 bc ea ba 81 bd 3a 62 08 bd
       -0.08897514 -0.011833028 -0.06334479 -0.0332968
000170 a0 ae 28 bd 66 f6 d2 bc 1f fd ad bd 6a 55 a3 bd
       -0.04118216 -0.025752258 -0.08495545 -0.07975276
000180 7b c0 bd 3c 23 a6 67 bd 61 2e 6e bd ff 9e 11 bc
       0.02316307 -0.056554925 -0.0581497 -0.008888005
000190 ea 8c 83 3a a5 96 d4 bc 87 e9 a4 3d 29 b8 c0 3d
       0.0010036502 -0.02595074 0.08052354 0.09410126
0001a0 57 3c 95 3d da 3f 8a bd ad f8 b7 bb b9 af a1 3d
       0.072868995 -0.0675046 -0.0056143613 0.078948446
0001b0 71 1a 9b 3d c2 4e fa bc 4c d2 4c bc 25 f8 d0 bc
       0.07573403 -0.030555133 -0.012501311 -0.02550895
0001c0 f9 d3 f3 3c 9d 5a b3 bd f7 ec 2a 3d 10 96 70 3d
       0.029764162 -0.087575175 0.041729894 0.05873686
0001d0 7b 67 02 3d 32 54 93 bd b6 b6 f6 bc 5b d2 89 3d
       0.031836968 -0.07193793 -0.03011642 0.06729575
0001e0 65 61 a8 3c bf a7 a2 3b 89 97 a8 3d 45 88 a0 3d
       0.020554254 0.0049638445 0.08232028 0.07838491
0001f0 37 fb 51 3d 84 c4 ba bd 56 33 a8 3d 21 a6 99 3d
       0.051264968 -0.09119514 0.082129166 0.0750239
000200 57 7c a5 bd d8 02 ad bc c6 ff 81 3b 05 ff 9f 3c
       -0.080803566 -0.02111952 0.003967258 0.019530782
000210 7a 83 4f bd af 12 86 bd e6 64 54 3d f0 21 c2 3b
       -0.050662495 -0.06546532 0.051854037 0.005924456
000220 b8 46 ef 3c 73 b1 88 bd 9d 62 89 bc 7b 3f fc 3c
       0.029208526 -0.06674471 -0.016770655 0.030791989
000230 d5 ba 8f bd f4 58 8d 3d 1c 58 0f 3b 93 45 a9 bd
       -0.07018057 0.06901732 0.0021872586 -0.08265223
000240 39 83 2c 3d 3b 78 39 bb 33 dd 85 bd f7 7b 3c bd
       0.04211733 -0.0028300423 -0.06536331 -0.04601666
000250 33 f7 50 3d 6e 45 0d 3d 88 e9 96 bd 46 11 a9 bd
       0.051016998 0.03449004 -0.07368761 -0.08255248
000260 d0 48 10 bd e2 ea 8c bd 9b d3 9b bd a5 2f fd 3c
       -0.03522569 -0.06880738 -0.0760872 0.030906508
000270 f4 42 68 bd 86 48 86 bd 71 cc a7 3d 15 9c e1 3b
       -0.056704476 -0.065568015 0.08193291 0.0068850615
000280 9f b4 9b 3d b8 59 46 bd 8d 59 0d 3c c3 3a 49 3c
       0.0760281 -0.048425406 0.008627308 0.012282076
000290 4d 1e 86 bc 31 d7 91 3d 87 19 61 3d 57 0e d4 3c
       -0.01637187 0.07121123 0.054955985 0.025885744
0002a0 cb 22 88 3c 56 d6 42 bd b5 18 13 3d f0 16 7f bd
       0.016618153 -0.047567688 0.035912234 -0.062277734
0002b0 cb 6d 11 3d f0 18 92 bd 76 90 2c 3d 33 54 4c 3d
       0.035505097 -0.07133663 0.042129956 0.049884986
0002c0 44 a1 2d 3c 32 d3 6a 3c 45 3c 3d 3d 67 e5 ba 3d
       0.010597531 0.014332579 0.046200056 0.09125786
0002d0 f8 24 8f bd 42 63 f0 3c ed 70 29 3b 8a 35 90 3d
       -0.06989473 0.029344205 0.0025854663 0.07041462
0002e0 9a ca 16 bc dc 58 fd bc ed a1 7f 3d ac 44 82 3d
       -0.009203577 -0.03092616 0.062410284 0.06360754
0002f0 f0 02 66 3d 64 2f 14 bc d9 4b 75 bd 40 fd 70 ba
       0.056155145 -0.009044502 -0.059886787 -0.00091930106
000300 76 11 3e bd c4 77 81 3d d8 30 85 3d de 2f 60 3d
       -0.04640337 0.063216716 0.06503457 0.05473315
000310 d3 49 56 bd bc be f4 3c cc ae 73 3d 97 10 74 bd
       -0.052316498 0.029876105 0.05949287 -0.059586134
000320 28 5f a7 bb 1a 84 7a 3b a9 b3 50 bd 21 3c 91 3d
       -0.005107779 0.0038225711 -0.050952587 0.07091547
000330 c0 e8 9d bc cc ef 21 39 7b e5 90 3d 9c f8 97 3d
       -0.019276023 0.00015443488 0.0707502 0.07420465
000340 d5 d5 e3 3c 43 18 07 3b f0 63 4f 3d b4 ad 4e bd
       0.027811924 0.0020613826 0.050632417 -0.050458625
000350 a7 47 25 bd ee c7 bd 3d f9 2a 9c bc f3 f0 b9 3b
       -0.040351536 0.09266649 -0.01906346 0.0056744753
000360 b4 7a 15 bd a4 b9 26 bd df 04 91 bd c8 2b 64 bd
       -0.036493972 -0.040704384 -0.07081007 -0.055705816
000370 58 90 84 bc cd 1e 9e bd 56 70 86 3d a3 8c 27 3c
       -0.01618211 -0.077207185 0.06564395 0.0102264015
000380 04 dc 3e bd d6 e8 6a 3d e2 48 78 3d 7e 4e be bc
       -0.046596542 0.057350956 0.06061638 -0.023230787
000390 ef a4 83 3d 96 43 6f bc 81 c6 5e bd 1a 8a a9 bd
       0.06427943 -0.014603516 -0.054388527 -0.08278294
0003a0 8b e7 cc bb f6 5e 99 bc 5e 5a 4b bc f4 63 ad bd
       -0.006253188 -0.018722039 -0.012411682 -0.0846633
0003b0 41 8d 19 3d 9f 5b ae 3a c4 e2 b6 3c 0a 80 85 3c
       0.037488226 0.0013302452 0.022324927 0.016296405
0003c0 a4 f5 a3 3d 55 f5 ca bc 1b 85 81 bc 9f 1b 15 bd
       0.080058366 -0.024775187 -0.01581054 -0.036403295
0003d0 a7 62 bb bc 87 8d 94 3d 01 ab 3d bd 8c d6 19 3d
       -0.02287419 0.07253557 -0.04630566 0.037558123
0003e0 8c 01 96 3c 61 0b 09 3d 2b 34 a0 3d 51 2e a3 bd
       0.018311284 0.033458117 0.0782245 -0.079678185
0003f0 8f 10 ae bc ae 66 a9 bd f2 cc aa bd 88 7b 27 bd
       -0.02124813 -0.08271538 -0.083398715 -0.040889293

linear4.weight f4 [3, 128]
000000 42 2f 83 3d c7 2a 58 bd 9a cd 66 3d 2a 36 87 3c
       0.06405498 -0.05277517 0.05634842 0.01650532
000010 e9 82 93 bd 6b bd 2b bd 0f a9 6c 3c 46 c9 f8 3c
       -0.072027035 -0.04192869 0.014444604 0.030369412
000020 10 95 8d bc 13 6d 8e 3d 6a 0f 8e 3d 78 97 65 3d
       -0.017282993 0.06954398 0.06936534 0.056052655
000030 08 80 a2 3c eb 44 4e bd 90 a0 b1 3c b3 d0 a6 bc
       0.01983644 -0.050358694 0.021683007 -0.020363187
000040 a9 80 23 3d 0f de 7c bc 47 fd 88 bd 51 90 92 3d
       0.03991762 -0.015433802 -0.06688934 0.071564324
000050 b6 b3 2b bd b6 6f d6 3c 36 32 38 3d ec 1a ca 3c
       -0.041919433 0.026176315 0.04496976 0.02467104
000060 d2 09 47 bd cd c5 71 3c 62 bd af bd a0 e1 b0 3d
       -0.04859335 0.014756632 -0.08581044 0.086367846
000070 62 61 a1 bd 0d 3b c8 3c e4 75 ac bd 9c 6f 1f bb
       -0.078799024 0.02444222 -0.08420923 -0.0024328
000080 d1 57 a0 3d c9 a1 b1 bd 51 11 84 3d b7 b9 55 bc
       0.0782925 -0.08673436 0.06448615 -0.013044766
000090 b7 7a 5c 3c 2e 29 91 3d e1 02 7a 3d b8 0b c3 bb
       0.013456992 0.070879325 0.0610379 -0.0059523247
0000a0 8d b6 64 3c 19 26 cc 3c 40 6e e6 3c d4 ea 86 3c
       0.013959539 0.02492051 0.028128743 0.016469397
0000b0 13 9d 92 bd 83 5c af 3d 44 d3 85 3d 6a 9b e8 bc
       -0.07158866 0.08562567 0.06534436 -0.02839442
0000c0 df 9c 05 3d d2 d3 84 bc ac 0a 88 3d 5d c2 13 3c
       0.032620307 -0.016214285 0.066426605 0.009018508
0000d0 86 f3 69 3c 3c 8e 61 3d f3 b0 05 3c cd de d1 bc
       0.014279252 0.055067286 0.008159864 -0.025618935
0000e0 e9 85 92 3d d3 29 bf 3c 75 53 85 3c 24 6f 25 3d
       0.071544476 0.023335373 0.016275147 0.040389195
0000f0 ac 73 ed 3c 17 d8 3a 3d b9 2c 0e bd e1 75 ea bc
       0.02898582 0.045616236 -0.03471062 -0.028620662
000100 3f 9d 1a bc d2 51 b4 bb 68 4b 9d 3d 80 ac 77 bc
       -0.009436904 -0.005502918 0.07680398 -0.015116811
000110 0f de 2e 3d 24 0d 94 bd a2 db 75 3d 92 27 8c 3d
       0.04269224 -0.07229069 0.06002391 0.06843485
000120 fa 38 13 3d 80 1c 8e 3c ed 2b 01 bc 95 46 97 bd
       0.03594301 0.017347574 -0.007884008 -0.07386509
000130 27 63 9d 3d 21 e4 cd bc 3b af d5 bc 91 38 52 bd
       0.076849274 -0.025133194 -0.026084533 -0.051323477
000140 a9 0e fc 3a 93 25 85 3d 92 a3 76 bc f6 ae bc 3c
       0.0019230443 0.06501307 -0.015053647 0.023032647
000150 b9 e5 fa bc 91 d6 4c 3b e4 f1 87 3b e1 60 f2 3c
       -0.030627118 0.0031255821 0.0041487087 0.029587211
000160 2c bd 7d bd 5a a2 88 bc 38 6a da 3c d9 7b 8e 3d
       -0.061947986 -0.016678978 0.026661977 0.06957216
000170 ff 8b b6 3c 71 81 a4 3c a8 ec 6e 3d 6b 60 93 3d
       0.022283552 0.020081254 0.05833116 0.07196125
000180 93 7a 11 3d 13 14 3c 3c 00 fc f2 3c 09 53 0e bd
       0.035517287 0.011479395 0.029661179 -0.034747157
000190 12 e8 4c bd d9 bc 5e 3b 35 a0 ef bc 20 10 2e 3d
       -0.050026007 0.0033987074 -0.029251197 0.042495847
0001a0 3a 8e 30 3d eb cc aa 3d da a9 54 bd 3d 5d 14 3c
       0.043104388 0.08339866 -0.051919796 0.009055433
0001b0 e1 46 1c 3d 5b 55 ab 3d 70 28 4f 3d 64 ce 88 3d
       0.038153533 0.0836589 0.050575674 0.06679991
0001c0 b5 79 49 ba ec 21 a1 bd 6e 0f 4f bd 6b 48 da 3b
       -0.0007685677 -0.07867798 -0.050551824 0.006661465
0001d0 67 51 a8 3d e8 b6 85 3c 10 f4 21 3d 18 59 86 bc
       0.08218651 0.016322568 0.039539397 -0.016399905
0001e0 4c c6 97 bd ca ff c2 bc 9c b1 9a bd fb b5 95 bd
       -0.07410869 -0.02380361 -0.075534075 -0.07310101
0001f0 df d2 52 3c 8a 00 a7 3c 80 f3 ee bc 47 5a 08 bd
       0.012867658 0.020386 -0.029168844 -0.03328922
000200 b8 fe 91 bd 71 18 f0 3c 22 f5 43 bc d9 27 b0 bb
       -0.07128662 0.02930853 -0.0119603 -0.005375844
000210 27 73 0a bd 07 02 63 bd bd ae 50 bd 19 5d 49 3c
       -0.033801224 -0.055421855 -0.050947893 0.012290263
000220 e7 28 ad 3d de c9 7c 3d 74 b4 5f 3d 32 57 9d 3d
       0.08455067 0.061715953 0.054615453 0.07682647
000230 4d 1d 92 bc f6 d6 b1 bd 73 2c 9a 3b 20 f6 45 3d
       -0.017836237 -0.08683579 0.004705006 0.048330426
000240 fa 6e 89 bd f4 eb e4 bc d1 fc 22 3c 80 cd 0c 3c
       -0.0671062 -0.027944542 0.009947971 0.008593917
000250 06 c4 85 bd fe 47 95 bd 01 4c 82 bd 41 fb 9c bd
       -0.06531529 -0.07289122 -0.06362153 -0.076651104
000260 6b 13 a4 bd 95 ac 65 3d 90 ce 7d bd 4b b5 f0 3c
       -0.08011516 0.05607279 -0.06196457 0.029383322
000270 d0 9e 81 3d f4 78 ba 3a 19 2e 29 3d e7 e9 6d bd
       0.06329119 0.0014226721 0.041303728 -0.058084395
000280 22 41 eb 3c e6 27 0f 3d b6 ce 0f 3d 33 c1 a4 3d
       0.028717581 0.03495016 0.035109244 0.08044662
000290 1f da 1a ba f9 a7 3d 3d fe b8 b0 3c dd ea 91 3d
       -0.00059071364 0.04630277 0.021572586 0.07124875
0002a0 9d fa 38 bd 55 75 86 bd 93 07 cd bc 83 14 5d 3d
       -0.04516088 -0.06565348 -0.025028026 0.05397464
0002b0 e3 89 53 bc 7f f6 43 bc 9d 6e 91 3d fe 9c 82 3d
       -0.012911293 -0.011960625 0.07101176 0.063776
0002c0 c1 ed 85 bd 90 f3 86 bd 3c 26 ad bc a6 5b aa bd
       -0.065394886 -0.065894246 -0.021136396 -0.08318262
0002d0 c9 0f 9e bd 4e 5a 1a bd 5d 6a ab 3d 02 22 09 bc
       -0.077178545 -0.037683778 0.083698966 -0.0083699245
0002e0 9c dd 82 bb 2f bb 7a 3d 9a 3f 89 bd 23 20 84 3d
       -0.003993703 0.06121367 -0.06701584 0.06451442
0002f0 7d 62 07 3d c3 8b 27 3d 7a 7a 9d bd fa 31 ed 3b
       0.03305291 0.04090477 -0.07689376 0.0072386237
000300 8d 8b 7b bd c9 cb 5c bd 28 b6 a4 bd 61 e1 1f 3d
       -0.061412383 -0.053905282 -0.08042556 0.039033297
000310 d0 79 32 3d a4 a2 05 bc 51 6d 45 bd f8 44 94 3c
       0.0435732 -0.008156452 -0.048199955 0.018099293
000320 4c c9 1b bd ef e6 0e 3d 97 aa 54 bd fc 37 23 3c
       -0.03803377 0.034888204 -0.0519205 0.009962078
000330 b0 b6 14 3d 30 ff a2 bd 3b 3a ce bc 15 91 a5 3d
       0.036307037 -0.079588294 -0.02517425 0.08084313
000340 f7 d4 9c bd 16 c4 4a 3d 83 66 06 3d fe ec b4 3d
       -0.07657807 0.04950341 0.032812607 0.08834265
000350 c7 cd 0b 3d 68 81 60 bd b6 f7 9d bd 4f 7c a7 3b
       0.03413179 -0.05481091 -0.07713263 0.0051112543
000360 6d d3 2f 3b 12 d2 45 3d e9 03 6f 3c a8 78 8f bd
       0.00268289 0.04829604 0.014588335 -0.07005435
000370 c8 22 74 bd cb 66 2c 3d 8a 75 23 3d ec 70 a3 3d
       -0.059603482 0.04209022 0.039907016 0.079805225
000380 a8 8b 9d 3c ab 94 8b bc 55 cb 09 bd 26 b7 a6 3d
       0.019231632 -0.017038664 -0.03364118 0.081404015
000390 68 1a 40 bc 36 90 ed bc 28 ce 5e bd 86 04 b2 3c
       -0.011725046 -0.02899943 -0.054395825 0.021730673
0003a0 36 98 89 3d 63 8f 40 3c 14 50 9e bd a8 2a 8e 3d
       0.06718485 0.011752936 -0.077301174 0.0694173
0003b0 b9 ba 28 bd 7a 7c 97 bd 03 28 17 bd 20 43 f8 3a
       -0.041193698 -0.07396789 -0.036903393 0.0018940903
0003c0 97 bd 1c bd f1 ba b3 bd 24 5d 20 3d 41 ec a8 bc
       -0.038266744 -0.087758906 0.039151326 -0.020620467
0003d0 f3 bd ba 3b 49 77 a0 3d 60 47 5a bc e5 81 8a bd
       0.0056989132 0.07835252 -0.013322681 -0.06763057
0003e0 b1 96 29 3d 83 01 91 bd c8 7c 23 3d 97 4d 03 3d
       0.041403476 -0.070803665 0.039913923 0.032056417
0003f0 18 92 22 bd 66 a4 1a bd 2f 43 91 bd e8 1f 05 3d
       -0.039690107 -0.03775444 -0.070928924 0.03250113
