saved_best_model_tnn.pt (torch, 143863 bytes, 4 tensors)

linear1.weight f4 [128, 13]
000000 c2 6c 86 be a1 0c 1b be d9 ad 80 3e d3 1a 5c be
       -0.2625485 -0.15141536 0.25132635 -0.21494608
000010 28 96 c0 3d 98 c5 c0 bb b8 d7 07 bd 8e 8d df bb
       0.0940364 -0.00588293 -0.03316471 -0.0068222946
000020 77 2a 6b 3e 89 1f 0a 3e 83 d2 2f 3d cc f5 70 3c
       0.22965418 0.13488592 0.04292537 0.01470704
000030 44 12 1d be 21 8c 15 be 0e ac 83 be b2 45 14 be
       -0.15338999 -0.14604236 -0.25717205 -0.14479712
000040 01 66 84 3e 4b 8e 11 bd e2 0b 35 be 21 9a 5a 3e
       0.25859073 -0.03553609 -0.17680314 0.21347858
000050 22 be 63 be 5b 3a 35 be 9b 64 c6 3d 5c d8 e1 bd
       -0.22240499 -0.17698042 0.09687158 -0.110275954
000060 f4 81 61 3e 98 a4 6e 3e a4 e1 51 3e 44 30 42 be
       0.2202223 0.23304975 0.20496231 -0.18963724
000070 95 d8 04 bb 1e 3e 74 3e ad 0c 9b 3d 1b 50 30 3e
       -0.0020270695 0.23851821 0.07570777 0.17218058
000080 b6 5d 25 3e 18 2d 97 be 6b 73 87 be c9 07 65 3d
       0.16149029 -0.2952659 -0.26455244 0.055915628
000090 44 0e 30 3e 4a e4 3d 3d de f2 1a 3e 6b 45 89 3e
       0.17192942 0.04636029 0.15131709 0.26810774
0000a0 90 a7 1c 3e e6 87 80 3e 97 7b f8 3d ab d3 c6 3c
       0.15298295 0.25103682 0.12132948 0.024270853
0000b0 06 f8 08 3e 0b fe 87 be c6 98 88 bc 92 c9 30 be
       0.13375863 -0.26561007 -0.01667441 -0.17264393
0000c0 3c f3 8e 3c 0f 49 f8 bd c4 e3 f3 3d cb 8c 13 3e
       0.017449968 -0.1212331 0.11908677 0.14409177
0000d0 73 35 0e 3c 6b c2 66 be eb 18 7c 3e 6d 56 70 be
       0.0086797355 -0.22535102 0.2461888 -0.23470469
0000e0 d3 f5 81 3e 8e d7 df 3c b6 02 16 be a8 47 70 3e
       0.25382861 0.027324464 -0.14649472 0.23464835
0000f0 1f 36 14 3f ae f8 59 3e 89 55 7e 3e ed de a2 bd
       0.5789508 0.2128627 0.24837317 -0.07952676
000100 28 1a 11 3e 03 aa 2d 3e f3 b3 47 3d 6b 4a 0a be
       0.14170134 0.16959386 0.048755597 -0.1350495
000110 7d 94 62 bd ea 33 28 be 0a 18 54 be 4f 58 0d bb
       -0.05531739 -0.16426054 -0.20712295 -0.0021567529
000120 7d c9 54 3e 3e 55 f6 39 f1 74 28 be 19 5d 67 3e
       0.20779987 0.00046984287 -0.1645086 0.22594108
000130 97 06 20 be 9b 3f 4f 3e 16 e3 40 be 9f e1 74 be
       -0.15627514 0.20239107 -0.18836626 -0.23914193
000140 e8 76 3a 3e 47 70 29 3e 2c f2 2d 3e c0 85 ac 3e
       0.18209422 0.16546737 0.16986912 0.33695793
000150 d2 84 08 3d 68 2c 5d bc a5 b5 7d be e0 eb 91 bd
       0.033329792 -0.013499357 -0.24776323 -0.07125068
000160 89 c0 de bc 10 5b 3c be 9a 64 71 be 1e 7f 83 be
       -0.027191417 -0.18394113 -0.23573533 -0.2568292
000170 7d 9c 21 be 55 42 31 be 57 c0 1e 3d df f5 b4 3d
       -0.15782352 -0.1731046 0.03875765 0.08835959
000180 f4 2c 30 3e 4e ad 46 be 80 bc 59 be d2 00 35 3e
       0.17204648 -0.19402048 -0.21263313 0.17676094
000190 96 5f 82 be 02 32 09 be d5 70 5a be c8 b2 2b be
       -0.2546355 -0.13397983 -0.21332105 -0.16767418
0001a0 88 90 6d 3d 69 11 b1 bc ff ce e5 3d 4b 93 08 be
       0.057999164 -0.021614747 0.11221122 -0.13337438
0001b0 3f 29 81 3e 31 7d 2a be 4c 63 2b 3e ce 26 59 bb
       0.2522678 -0.16649319 0.16737098 -0.0033134702
0001c0 01 48 6a be fe cb 54 be b0 07 4f 3e 07 d5 85 be
       -0.2287903 -0.20780942 0.20217776 -0.2613909
0001d0 4a 7e 21 3e d9 7b d8 bd 33 9d 84 bd fa de 72 3e
       0.15770832 -0.10570497 -0.06475296 0.23717871
0001e0 3a cb 72 be ea 48 69 be c2 84 8b 3e 6d 0d 93 3c
       -0.23710337 -0.22781721 0.27249724 0.017950738
0001f0 69 82 7a 3e d9 60 61 be 98 5a 26 3e cb b1 66 bd
       0.2446381 -0.220096 0.16245496 -0.0563219
000200 fe d9 93 bc d0 97 5b 3e 87 a9 64 be 58 c5 c9 3d
       -0.018048283 0.2144463 -0.22330295 0.098520935
000210 4e b7 82 be 4d 64 fe bd c7 73 12 3e e1 d6 38 be
       -0.25530475 -0.124214746 0.14301978 -0.1805072
000220 cf b5 10 3d 19 93 cf 3d 0e 7c e0 bd a3 78 57 3e
       0.035329636 0.101354785 -0.109611616 0.21042113
000230 7d 55 6f 3e 18 4b 81 be 87 8d 04 be e7 7e 05 3e
       0.23372455 -0.25252604 -0.12944613 0.1303669
000240 7c 6b 0c 3e 1a 41 01 3d 1a c7 62 3e 2b 99 55 3e
       0.13712877 0.031556226 0.22146264 0.2085921
000250 ae 23 42 be 41 77 8a 3d 56 77 3b be f0 87 3d be
       -0.18958923 0.06761027 -0.18307242 -0.18508887
000260 bb 86 41 3e 03 a0 44 be a2 55 42 3e 11 f7 cb 3c
       0.18899052 -0.19201665 0.18977979 0.024898084
000270 12 52 91 3c 23 0e 5d bd 9d a1 db bc 34 9f dd bd
       0.01773933 -0.05396856 -0.026810462 -0.10821381
000280 4a 81 dd bc a8 27 64 be 57 ae 69 3c bc 52 1b 3d
       -0.027039189 -0.22280753 0.014262757 0.0379207
000290 ed fb 17 be 13 99 be 3a 90 f6 3f be 06 f3 5a be
       -0.14842196 0.0014541469 -0.187464 -0.21381769
0002a0 38 89 8b be 90 fc 83 be f5 ed 45 3e 5b cf 88 be
       -0.27253127 -0.25778627 0.19329055 -0.267207
0002b0 07 d5 be 3b 0f 95 9d bd 35 f1 1b be 7d 8b 5e be
       0.0058237347 -0.07694446 -0.15228732 -0.21732898
0002c0 78 cc 8e be a5 2a f7 bd 40 f7 5e 3e c2 82 c3 3d
       -0.27890372 -0.12068681 0.21774006 0.095464244
0002d0 ff b8 21 be 46 88 59 bd a2 29 50 3e 34 58 54 3e
       -0.15793227 -0.053108476 0.20328382 0.20736772
0002e0 a7 ca 37 3d 55 fb be 3d 2b 77 0f be 31 b2 4b be
       0.044871 0.093252815 -0.14010303 -0.19892193
0002f0 6b 08 0e 3e 6b 09 30 be 4a 7e b3 be b2 af 10 3e
       0.13870399 -0.17191093 -0.35057288 0.14129522
000300 06 fd 24 3e 8a d3 0c 3e f4 7d b1 3d 5d 37 23 be
       0.16112146 0.13752571 0.08666602 -0.15939088
000310 34 9c 41 3e aa ec 68 be f7 ef 1d be a6 70 84 be
       0.18907243 -0.2274653 -0.1542357 -0.25867194
000320 42 2d 35 be 24 99 b4 bc c4 1b 06 be b6 0b 21 3e
       -0.17693046 -0.02204568 -0.13096529 0.15727124
000330 84 95 1e be ee cc 66 be cd 0e 86 bd e0 38 59 3e
       -0.15486723 -0.22539112 -0.06545792 0.21213102
000340 35 d3 17 3e bf 5a 35 3e 6a 5e 1d be 99 a7 07 3e
       0.14826663 0.17710398 -0.15368047 0.13247527
000350 05 d9 35 3e 30 dd 8a bb 5b b5 6a 3e 49 a0 44 3e
       0.17758568 -0.0042377934 0.22920744 0.19201769
000360 d1 bf 92 3b 51 1d 5e 3e 73 2f 21 3e 79 bf 28 bc
       0.0044784327 0.21690871 0.15740757 -0.010299557
000370 c0 67 d1 bb 36 a9 1c bd 91 6c 31 3c d6 b2 20 3e
       -0.006390542 -0.03824731 0.010829107 0.1569322
000380 1d df 31 be a6 08 16 be 9a fa 38 be 3a 55 37 3e
       -0.17370267 -0.14651737 -0.18064347 0.17903605
000390 6d d9 35 be 5b 3a 71 3e a9 77 a5 bd 96 b7 30 bc
       -0.17758723 0.23557417 -0.08079464 -0.010785958
0003a0 d8 16 35 3e 52 31 4b be f1 74 52 3e e2 7d 4d 3d
       0.17684495 -0.19843033 0.20552422 0.05016888
0003b0 e3 d4 88 3e 5f 0b 7b be 9d 7d 84 be d8 4d 49 3e
       0.2672492 -0.24516056 -0.25877085 0.19658601
0003c0 66 04 0d 3e fd ec 35 be 27 f9 31 3e 08 eb 6e 3e
       0.13771209 -0.17766185 0.173802 0.23331845
0003d0 fd 8d 86 3e c2 e2 90 3c 73 e1 82 3e 41 9e 33 3e
       0.26280203 0.017686252 0.2556263 0.17540838
0003e0 0f 84 0d bd ac 0c 62 3e 70 c1 83 be d9 ca 63 3e
       -0.03454977 0.22075146 -0.2573352 0.22245349
0003f0 3c e7 6e 3e 0a c4 2d 3e f9 c8 3a be 5f e8 86 3e
       0.23330396 0.16969314 -0.18240727 0.2634916

linear2.weight f4 [128, 128]
000000 5d c5 ac bd 72 43 a7 3d d0 e5 a5 3d 4b 1c 12 3d
       -0.084360816 0.08167161 0.08100474 0.035671514
000010 15 5f 56 3d 1b 88 fc bd 4a 82 c7 3d 99 f6 89 3d
       0.05233677 -0.123306476 0.097416475 0.06736488
000020 13 54 86 3d 5d ce 84 bd 45 05 c2 3d 6b 3f 07 3e
       0.06559005 -0.06484673 0.09473661 0.13207786
000030 f0 e2 95 3d 52 9f 7f bd e1 35 95 3d 26 a2 10 bd
       0.073186755 -0.0624078 0.07285667 -0.035310887
000040 38 ff 71 bd 28 1b 83 bd e5 c6 0b bd df d9 01 3c
       -0.059081286 -0.06401664 -0.034125227 0.00792548
000050 0f 59 17 3d b7 71 30 bc e9 ea 13 bd d8 0f af 3d
       0.036950167 -0.010769299 -0.0361127 0.08547944
000060 cf 78 33 3d 02 06 ce bd 35 13 69 3d 25 e3 39 bb
       0.043816384 -0.1005974 0.056903083 -0.0028364148
000070 f9 9a a8 3d e5 3f 82 bd 46 2e 71 bd 79 6a 9c bd
       0.08232684 -0.06359843 -0.05888202 -0.076374955
000080 16 05 42 3d 2b f6 b3 bb f1 85 7b 3d 94 44 b0 3d
       0.04736813 -0.005491992 0.061407033 0.0860683
000090 6f de 34 bd f7 28 c7 3c 61 bc d9 3c f7 24 55 bd
       -0.04415744 0.024311526 0.026579084 -0.052037206
0000a0 b5 e0 23 bd 5a 75 bb 3d b0 46 9b bd a8 7d 71 bd
       -0.04000922 0.091532424 -0.07581842 -0.058957726
0000b0 f3 55 58 bd 61 ad 76 bd 5c 31 99 3d 78 9c 2f bd
       -0.052816343 -0.06022394 0.07480118 -0.04287383
0000c0 d8 0a ac bd 34 58 6a bd e1 d1 ad bd 52 01 a2 bd
       -0.08400506 -0.057213023 -0.08487297 -0.07910408
0000d0 f5 22 3f 3d 1f d1 84 bd d9 c0 42 3d 53 37 6c bd
       0.046664197 -0.06485199 0.047547195 -0.05766995
0000e0 e9 8e f4 bd 35 73 56 bd 1a ea 33 3d 6d a7 87 bd
       -0.119413204 -0.052355964 0.04392443 -0.06623731
0000f0 04 57 6b 3d 44 35 aa 3d e0 69 5d 3d b0 07 c0 3a
       0.05745603 0.08310941 0.05405605 0.0014650729
000100 f7 91 1c 3c 86 aa 10 bd b9 37 2e 3d ff 2a 6a bd
       0.009556285 -0.035318874 0.04253361 -0.05716991
000110 ee ee b6 bd 4e 86 87 bd 91 91 00 3e 8d 0d 3d 3d
       -0.08932291 -0.066174135 0.12555529 0.0461555
000120 c1 e5 2d 3a c9 cf d4 bc 65 56 65 bc ff 23 88 bd
       0.0006633662 -0.025977986 -0.013997649 -0.06647491
000130 83 f7 94 3c f9 2b 8d 3d fa a8 3a bd 9f 55 89 3d
       0.018184429 0.06893153 -0.045571305 0.06705784
000140 e0 01 98 3d 39 ea 9b 3d 7c ec c3 bd 54 e5 64 bd
       0.07422233 0.07613034 -0.0956659 -0.055882767
000150 96 47 e0 bd c5 9b 38 bd 84 53 22 bd 87 e6 97 bd
       -0.10951154 -0.04507043 -0.039630428 -0.074170165
000160 e0 19 92 3d 84 5b b5 3c f0 12 53 3d e2 c5 5c bd
       0.071338415 0.022138365 0.051531732 -0.053899653
000170 06 b6 bd bd e9 3d 45 bd 37 fe 18 3d e1 44 89 3d
       -0.09263234 -0.048154745 0.037351813 0.06702591
000180 ab 6c 52 3d 15 13 5a 3d 84 6f cc 3c 5b cb b1 3d
       0.051373165 0.053240854 0.024955519 0.08681365
000190 ab 0a 90 3d 8b f7 7c bd 9b 96 ab 3d 72 7d 0d 3d
       0.07033285 -0.061759513 0.08378335 0.034543462
0001a0 0e 56 fb 3c d1 54 5b 3d 9f f8 91 3d 76 9b 97 bd
       0.030680683 0.053547684 0.07127499 -0.07402699
0001b0 84 10 5c bd 22 c6 86 3d 70 6b 38 bd ef aa 72 3d
       -0.053726688 0.065807596 -0.045024335 0.059245046
0001c0 a0 50 83 3d d6 5e 64 bd 50 68 96 3d 74 a8 a4 bd
       0.064118624 -0.055754505 0.07344115 -0.080399424
0001d0 84 96 e6 bd b8 eb 77 bd 54 46 36 3d 1e 56 91 3d
       -0.11259177 -0.060527533 0.044500664 0.07096504
0001e0 3e 10 a4 bd 3d fa f8 bb ec b5 ee 3c 5d 92 8a bb
       -0.080109105 -0.00759819 0.029139481 -0.0042288736
0001f0 d2 e0 ab bd 81 76 78 bd 72 13 0f be 7f 5d b0 3d
       -0.083924904 -0.06065989 -0.13972262 0.08611583
000200 27 57 24 3d ad 04 36 3d db 50 91 3d e4 b5 91 bd
       0.040122177 0.044438053 0.070955 -0.07114771
000210 32 28 99 3d 5c 96 3d 3c b7 11 8f bd 98 b0 4d 3d
       0.0747837 0.011571493 -0.06985801 0.05021724
000220 41 b5 88 3d 64 7f 89 3d fe 23 ae 3c b5 ba cb 3c
       0.066751964 0.06713751 0.021257397 0.024869302
000230 41 71 48 3d 99 3f 41 3b b6 fe 8f 3d 60 64 7a 3d
       0.048936132 0.002948737 0.07031004 0.06113088
000240 04 b2 b0 bd 33 7a a0 bc 5a 56 90 3d 00 0a 95 bd
       -0.08627704 -0.01958952 0.0704772 -0.07277298
000250 ff 79 ca bc 09 a7 96 bd b2 eb 56 3b 28 2c 26 bd
       -0.024716375 -0.07356078 0.0032794294 -0.040569454
000260 6c f0 9e 3d 68 02 b2 bd f1 87 25 bd ce 99 66 bd
       0.077607006 -0.08691865 -0.040412847 -0.056299023
000270 d1 f2 30 ba 02 90 14 bd fb 5d 2d 3d 92 e1 4a bd
       -0.00067500497 -0.03627015 0.042325955 -0.049531527
000280 34 b6 0a bd e2 35 92 bd be 9e 01 bd ba 02 2e bd
       -0.03386517 -0.071391836 -0.03164553 -0.04248307
000290 60 4f 37 3d 56 4d 7b bc 34 37 9c 3d d7 17 93 bd
       0.044753432 -0.015338263 0.07627717 -0.071822815
0002a0 a4 f9 35 3d 7a df 0a 3c 67 76 53 3d 75 fa 21 bd
       0.04442753 0.0084761325 0.05162659 -0.039545495
0002b0 e7 8b a5 3d 6f 83 a8 3d a7 32 59 39 b6 c1 a5 bd
       0.08083325 0.08228194 0.00020713602 -0.08093588
0002c0 a8 32 91 bd 9b bb 58 3b fe 6c a9 3c f9 4a 36 bd
       -0.0708974 0.0033070806 0.020681854 -0.044505093
0002d0 43 73 78 3c 50 6f 22 bd d9 f7 b1 3b c0 bc 08 3d
       0.015164199 -0.039656937 0.005431157 0.03338313
0002e0 c1 a9 1c bd 1b c3 8a 3d 87 5f 50 bd e8 59 95 bb
       -0.038247827 0.06775495 -0.050872352 -0.004557837
0002f0 db fe 7b bd c8 47 ac 3d 7d 6b 58 bd 44 a6 16 3d
       -0.061522346 0.08412129 -0.052836884 0.036779657
000300 63 24 2f bd 0d 6f a0 bd 2d bf a4 37 c9 44 06 bb
       -0.04275931 -0.07833681 1.9639347e-05 -0.0020487776
000310 d8 2e 16 bd 50 d7 63 3d 5d 7c a3 bd df d6 5e 3d
       -0.036665767 0.05562526 -0.07982705 0.054404136
000320 1f c0 72 bd 60 31 8a 3d d1 51 46 bd 61 22 a5 bd
       -0.059265252 0.06747699 -0.04841787 -0.08063198
000330 3a d8 5a 3d e6 e5 2c bd 39 15 0c bd da 0b 9c 3d
       0.053428866 -0.042211436 -0.034199927 0.07619448
000340 eb 35 64 3d 65 99 66 bd 96 e3 8d 3d 07 e6 95 bd
       0.055715483 -0.056298632 0.06928174 -0.07319265
000350 f5 8a 67 bd b5 57 44 3d 7e 42 85 3c f4 99 13 bd
       -0.056529004 0.047935206 0.016267058 -0.036035493
000360 d7 8d 56 3c 13 d5 2f 3d e2 5d 75 bd c6 2f 0d 3d
       0.013095341 0.042927813 -0.059903987 0.03446939
000370 fc 4e 92 3d b7 94 73 3d 06 1d a9 3d 4b d9 2b 3d
       0.07143971 0.059467997 0.08257489 0.041955274
000380 90 03 af 3d cc 36 af 3d d0 ab ab 3d fa e2 ec 3c
       0.08545601 0.085553735 0.0838238 0.028916825
000390 6e 01 38 bd 3d 1c 9e ba 2d b8 92 bd c8 af a1 bd
       -0.04492324 -0.0012062859 -0.07164035 -0.07894856
0003a0 5f bf 8f bd 69 47 a5 3d cb 69 31 3d 8a 4b 94 3d
       -0.07018923 0.08070261 0.043313783 0.072409704
0003b0 a1 b7 1f 3d 5c 37 14 3c 89 06 74 bd 34 b5 c5 bc
       0.03899348 0.009046402 -0.059576545 -0.024134256
0003c0 06 e7 35 3d 85 1c 86 bd 74 72 80 3c f0 62 18 3d
       0.044409774 -0.065484084 0.015679576 0.03720373
0003d0 c9 99 d2 bc 2d 46 80 bd b6 c3 c2 ba ab e0 4e bd
       -0.025708096 -0.06263385 -0.0014859352 -0.05050723
0003e0 99 85 35 bd 32 5d 8d 3d a8 3f 9e bd 5a c2 8a bd
       -0.04431686 0.06902541 -0.07726985 -0.06775351
0003f0 93 8b 91 3d f6 de 14 bd da 40 e9 3c b9 67 63 bd
       0.071067 -0.036345445 0.028473306 -0.05551884

linear3.weight f4 [128, 128]
000000 37 57 af bd e4 06 83 3d e2 08 8f bd 29 74 30 bd
       -0.08561557 0.06397799 -0.06984116 -0.04307953
000010 80 34 a6 bd 19 0c 7f bd ec da 0c bc 1d a1 24 3c
       -0.08115482 -0.062267397 -0.008597117 0.010048178
000020 ff c2 93 bd 43 2e f4 bc aa 4e cf bc 3c 84 35 bd
       -0.07214927 -0.029807216 -0.025306065 -0.04431556
000030 24 54 c1 3c 86 3d d9 bc 4a af 99 3d cb d5 3f 3d
       0.023599692 -0.026518594 0.07504137 0.04683475
000040 01 bd a1 3d 9e aa 92 3c cb 78 b0 3c 9a ae 5e bb
       0.07897378 0.017903622 0.021541974 -0.0033978582
000050 47 f5 6f 3c b6 4d 56 3d 6e da 93 3d 56 86 a7 bd
       0.014645881 0.052320205 0.072193965 -0.081799194
000060 3a 0f a0 3d e6 43 04 bd 2e ca a3 3d f7 f7 03 3d
       0.07815404 -0.032291315 0.07997547 0.0322189
000070 30 5f 4d bd 8b 84 15 3d 05 17 8e 3c 4c c9 af bc
       -0.050139606 0.036503356 0.017344961 -0.02145829
000080 13 7f 92 3d c1 16 9d bc d2 5d 8c ba ff ec 7a 3d
       0.07153144 -0.019175889 -0.0010709113 0.061261173
000090 57 33 4c 3d 68 2d 74 3c f0 2b 8c bd 4e 88 ac 3d
       0.04985365 0.014903404 -0.06844318 0.084244356
0000a0 24 ba 33 3d c1 03 09 bd 46 43 32 bd 4a 47 b6 bc
       0.04387869 -0.033450846 -0.04352119 -0.02225079
0000b0 9e c0 c9 3c 7b e4 8e 3d ed 16 39 bc a9 c4 15 bd
       0.02462798 0.06977173 -0.01129697 -0.036564503
0000c0 8e 33 3f 3d cc 8a 86 bd ea 9f 20 bd 51 2a 55 3d
       0.046680026 -0.06569442 -0.039215006 0.05204231
0000d0 0a 0a 7d bd 16 86 98 3d 22 a6 88 3d 12 dc da 3c
       -0.061777152 0.0744745 0.06672312 0.026716266
0000e0 20 b7 25 bd 9b 1d e0 bc bf dc 8b 3c 40 0e 30 bd
       -0.040457845 -0.027357867 0.017073033 -0.04298234
0000f0 12 1a b1 3d df 20 9d bd 15 ad 8b 3d f1 d5 a5 3c
       0.08647551 -0.07672285 0.06820122 0.020243617
000100 0a c1 a8 3d 0b f9 78 bd e0 88 3e 3d 0f 7a 80 3d
       0.08239944 -0.06078438 0.046517253 0.06273281
000110 bc 93 47 bb 4c 28 1a bd 3a ae 91 bd cf fa 95 3c
       -0.0030453047 -0.037636086 -0.07113309 0.018308071
000120 29 75 0a bd 83 ae 21 bc 13 dd 48 bd d5 e5 d1 bc
       -0.03380314 -0.009868267 -0.049038958 -0.025622288
000130 4c c0 35 bd 52 76 fe 3c ef 68 43 3d fc 64 7e bd
       -0.04437284 0.031062279 0.047707494 -0.062108025
000140 d3 cd 02 3d 5a 8a 34 3c 75 d2 cb 3b c3 a6 46 bd
       0.03193457 0.011019314 0.006220157 -0.04849888
000150 22 b8 b1 3d c0 ad 4f 3d 3f f0 75 bd 27 c0 3a 3d
       0.08677699 0.05070281 -0.06004357 0.045593407
000160 26 a2 a0 3b 33 4b dd 3c 10 1f 56 bd 09 f9 82 bd
       0.004902142 0.027013397 -0.052275717 -0.06395156
000170 32 5c 6a 3d c4 17 15 bb b4 ca 59 bb b8 be 9e bd
       0.05721683 -0.002274976 -0.0033232393 -0.077512205
000180 44 5a 88 bd c6 8e 9e bd 89 9c 01 bd 6f 78 8c 3d
       -0.06657842 -0.077420756 -0.031643424 0.068589084
000190 81 d5 75 bd 26 c7 4f bd 02 f3 d4 bc 93 e2 9e 3d
       -0.060018066 -0.050727032 -0.025994781 0.07758059
0001a0 9b f9 85 3d be f1 b7 3c c8 7e a0 bd 3a f2 85 3d
       0.06541749 0.022454139 -0.078366816 0.06540342
0001b0 b9 c2 69 3b 3b 71 46 bd f9 e1 ae bd 2f 52 a3 bd
       0.0035669042 -0.04844783 -0.085391946 -0.0797466
0001c0 05 bc ca 3c 8c c0 74 bc 54 10 97 bd 9a c1 87 3d
       0.024747858 -0.014938485 -0.07376161 0.066287234
0001d0 b5 bb 2d bd 09 c8 2c 3d 82 3f 73 3d 16 82 4a bd
       -0.04241534 0.042182956 0.059386738 -0.049440466
0001e0 c2 73 3c 3d 62 7a 73 bc 19 29 95 bd 63 76 8c 3d
       0.046008833 -0.014860721 -0.072832294 0.06858518
0001f0 74 8b 4b 3d 43 fc 18 bd 49 0c a5 3d 74 ac 73 bc
       0.04969354 -0.03734995 0.08058984 -0.014872659
000200 83 1b 7e 3b e6 c3 1b bc 79 6c 43 3d c1 a1 1a 3c
       0.0038773722 -0.009507155 0.04771087 0.009437979
000210 64 26 0b 3c f7 85 5a bc 51 8d 02 3d ea b7 6a 3d
       0.00849304 -0.013337604 0.03187305 0.0573043
000220 98 98 9e 3c d0 d6 70 3d f3 4a 9a bd 0d 63 99 3d
       0.019359872 0.05879861 -0.07533827 0.074895956
000230 f8 db 52 bd 09 a9 a7 bd 3b d6 b1 3d 9c 84 0b 3d
       -0.05147931 -0.08186538 0.08683439 0.034062013
000240 8b 23 a9 3d 29 e7 82 bd ae 1c 89 bd 94 34 91 3d
       0.082587324 -0.063917466 -0.06694923 0.070901066
000250 ff 02 92 3d 8b 39 49 3d 1b df 22 bd c4 20 34 3d
       0.07129478 0.049127143 -0.03976355 0.04397656
000260 54 cf 7f 3d 61 b1 8e 3d 20 a9 fe 3c d5 41 86 bc
       0.062453583 0.06967426 0.031086504 -0.016388813
000270 42 be 9f bd 71 f9 a8 3d 87 02 1d 3d 91 9e ff 3c
       -0.07799961 0.08250702 0.03833249 0.03120354
000280 9c e6 5b 3d ad 78 83 3d 74 e0 5c 3c ca 6b 31 bd
       0.053686723 0.064195015 0.013481248 -0.043315686
000290 0a 3a 0b 3c b2 24 2e 3d 5f 14 36 bd 7a d8 97 3d
       0.008497724 0.042515464 -0.04445302 0.074143365
0002a0 64 fd af bd 20 36 23 bd 1e 48 21 bd e1 f6 90 bc
       -0.08593252 -0.03984654 -0.039375417 -0.017695846
0002b0 af cc a4 bd 30 88 ac bd 5f 52 4e 3d 58 0c 07 3d
       -0.08046853 -0.08424413 0.050371524 0.032970756
0002c0 ba 0f 13 bd 5c 37 84 bd d7 c9 40 bd 13 ba 0a bc
       -0.03590367 -0.064558715 -0.04706749 -0.008467215
0002d0 2a fd 72 3d 15 bd d9 bb a2 d7 29 bd 36 2f 60 3c
       0.059323467 -0.006644855 -0.04146541 0.013683131
0002e0 65 ac ff bc dc 0c 68 3d 51 1f 99 3d 67 11 0b bc
       -0.031210134 0.05665289 0.07476676 -0.008488036
0002f0 bd 98 cc bc 3e 59 ab bd 2f e6 be bc ed 31 8c bd
       -0.024975175 -0.08366631 -0.02330312 -0.0684546
000300 6f 7a 75 3d 5a 3d 8d 3d de 62 8d bc c2 e7 a1 bd
       0.059931215 0.068964675 -0.017259058 -0.079055324
000310 ce b2 54 bd d2 2d ad 3d ba 85 87 ba ad 4e 95 3d
       -0.051928334 0.08456005 -0.0010339536 0.07290397
000320 71 6e 92 bd 36 be 13 bc bf 1d 3b 3d bd da a1 3d
       -0.07149971 -0.009017518 0.045682665 0.07903049
000330 4a 06 34 bd cf 37 49 bd 74 ef 89 3d e7 b2 95 3d
       -0.04395131 -0.04912549 0.06735125 0.073095135
000340 ee f4 d7 3c f6 93 3c bd ac 92 83 3d 66 60 a0 bd
       0.026361909 -0.046039544 0.0642446 -0.078308865
000350 8b 6d 36 bd 02 5d 7e 3d 28 f6 28 bb 27 46 86 bd
       -0.044538062 0.062100418 -0.0025781486 -0.06556349
000360 e2 c5 19 bd 65 13 48 3c 71 fb 05 bd 22 6c 18 3d
       -0.03754223 0.012211655 -0.032710496 0.0372125
000370 79 9c a5 bd 80 91 60 3d d3 89 6b 3d 52 71 2c 3d
       -0.080864854 0.05482626 0.057504486 0.04210026
000380 49 12 83 3c e4 64 24 bd 17 da b2 3d 9a ba ee bc
       0.01599993 -0.04013528 0.087330036 -0.029141713
000390 a9 29 f6 bc 2f a8 8e bd bf 84 69 bd 07 5a 98 3d
       -0.030049162 -0.06965672 -0.057011362 0.07439046
0003a0 45 09 83 3d 51 ea 5f bd 7c 9c 94 3d 43 9f 8e 3a
       0.063982524 -0.05466682 0.072564095 0.0010881204
0003b0 d2 0a 1a bd 0e b7 88 3d 8a 59 1a bc 94 8e 47 3d
       -0.037607975 0.0667554 -0.009420762 0.048719957
0003c0 2a 37 ac 3a a7 cf 0f 3d e9 7a 98 3d 8c e4 54 3d
       0.0013138999 0.035110142 0.07445318 0.05197577
0003d0 28 1f ac 3d 1b 75 36 3d 06 69 b8 bc 27 7c 62 3d
       0.0840438 0.044545274 -0.022511017 0.055294182
0003e0 8a c3 59 bd d7 05 92 bd 21 ca 8a bd 80 8e 35 bd
       -0.053164996 -0.0713002 -0.06776834 -0.04432535
0003f0 3a 94 73 ba 64 05 98 3d 02 ec 87 3c 38 df 37 bd
       -0.0009291802 0.07422903 0.01659203 -0.044890612

linear4.weight f4 [3, 128]
000000 d2 b0 14 3d 42 0d a7 3d 78 28 8f 3d 06 00 27 bb
       0.03630144 0.081568256 0.06990141 -0.0025482192
000010 0a 82 79 3c 71 33 ac bd 41 f6 a3 bd 9e 1c 23 3d
       0.015228758 -0.08408249 -0.080059536 0.039822213
000020 f3 fb 54 3d b3 9a 02 bd 9c 40 88 bd f6 a8 de 3c
       0.05199809 -0.031885814 -0.06652948 0.027180176
000030 e2 48 3a 3d ae 11 95 3d 0a 59 86 3c bb 48 c5 3c
       0.045479663 0.07278763 0.016399879 0.024082532
000040 9e 21 b7 3c 04 08 43 bd dd 7e 1b bd a0 88 95 bd
       0.022354897 -0.047615066 -0.037962783 -0.0730145
000050 66 42 3d 3d 49 8d b0 bd 22 27 45 bc 33 5f 87 3d
       0.0462059 -0.08620698 -0.012033256 0.06609955
000060 29 dc 18 bb e8 a8 b0 3d e3 c3 ae 3d 86 02 8d bd
       -0.0023324585 0.08625966 0.08533456 -0.06885247
000070 6a df 74 bd 73 f1 b1 3d a5 dd 1c 3c 01 86 82 3d
       -0.059783377 0.08688631 0.009574329 0.063732155
000080 46 e1 fb bc 70 73 55 3d b9 ba 64 bd c4 4b a0 bd
       -0.030747067 0.052112043 -0.055842135 -0.07826951
000090 8e 11 88 3d 73 df 90 3d 78 05 14 bc b6 c4 4e bd
       0.06643973 0.070738696 -0.009034507 -0.050480567
0000a0 7a 9f 6d 3d 3f 63 0c 3c a9 6a 99 bb 3a d9 e1 bb
       0.058013417 0.008568584 -0.0046819043 -0.0068923505
0000b0 d1 23 ce bc 6f 3f 6d 3d 07 ad 1d bd 84 37 9f 3d
       -0.025163563 0.057921823 -0.03849509 0.07774261
0000c0 16 1a 97 3d 62 6b 40 bb 0a 9a 98 bd bb cd 87 3d
       0.073780224 -0.002936088 -0.074512556 0.06631037
0000d0 2d cd 8a bd c4 23 95 3d 1a f3 80 bd 1f 23 0c bd
       -0.067774154 0.072822124 -0.06296368 -0.03421318
0000e0 0c 47 a8 3d e1 cb 29 3d 45 f1 4e bd bb ad 23 bd
       0.08216676 0.0414542 -0.05052306 -0.039960604
0000f0 f7 33 9c 3d 5d de 07 3d 4c ac a9 3d f2 82 a4 bd
       0.07627099 0.033171047 0.08284816 -0.08032788
000100 5f 5e 2a 3c db 57 af 3d 99 81 28 bd 06 ef 1f 3d
       0.010398476 0.08561679 -0.04113922 0.03904631
000110 2d a8 72 bd 74 1d eb bc bc 99 4f 3d 43 8a 66 bc
       -0.059242416 -0.028700568 0.050683722 -0.01407105
000120 6d f4 e0 bb aa 77 46 3d ae f0 8f bd bf 25 73 3d
       -0.0068650753 0.048453964 -0.07028328 0.05936217
000130 53 53 54 3d c3 c3 9d bd 90 9f 55 bd 38 df 8d 3c
       0.051837277 -0.07703354 -0.052154124 0.017318353
000140 58 5e 91 3d c8 7e 15 bd 55 c6 b9 3c de 95 4b bd
       0.07098073 -0.03649786 0.02267758 -0.04970347
000150 91 d9 ef 3c 11 98 e6 3c 7a fb 40 3c ce f6 1d bd
       0.029278548 0.028148683 0.011778707 -0.03856545
000160 e7 8b 84 bd 6c 51 3d 3c 3b 28 41 3d 0f 7a 07 b9
       -0.06471997 0.011555057 0.047157507 -0.00012920074
000170 85 5c 01 bc db 94 86 bc 47 60 41 bd 60 1b 1c bd
       -0.0078955935 -0.016428402 -0.047210958 -0.038112044
000180 af 67 f3 3c 9d 5d 2f bd 85 2f af 3d d8 2d c2 3c
       0.029712526 -0.042813886 0.085539855 0.0237035
000190 00 c1 63 3d 51 18 93 bd f3 a2 9a 3d 26 82 07 bd
       0.05560398 -0.07182372 0.07550611 -0.033083104
0001a0 0d 0c fc 3c ef fd 30 bc 94 5b 3f bc 5c 33 16 bd
       0.030767465 -0.01080273 -0.011679549 -0.036670074
0001b0 e8 97 8d 3d eb cc e9 bc 96 0a e0 bb d1 57 8b bd
       0.069137394 -0.028540095 -0.0068371994 -0.06803859
0001c0 ac 22 9f bd 3f 2c 93 3c 59 25 b2 bc 89 57 95 bd
       -0.07770285 0.017965434 -0.021746324 -0.07292087
0001d0 5f 44 17 3d d9 a9 0a bd 2f 01 de 3c fd 72 ae bd
       0.036930438 -0.033853386 0.027100174 -0.08518026
0001e0 16 8c 06 3d d8 50 34 bd cb 87 99 3d 56 76 a4 3d
       0.03284844 -0.04402241 0.074966036 0.08030383
0001f0 08 e1 f5 bc 51 61 91 3d 15 26 dc 3c 5b 56 90 3d
       -0.03001453 0.0709864 0.026873628 0.07047721
000200 18 44 9c 3d 84 97 af 3d 36 74 99 bd 4c 52 7e 3d
       0.07630175 0.08573821 -0.074928686 0.062090203
000210 9e 17 7f bd 18 31 29 bd 0a 63 f2 bb aa a2 26 ba
       -0.062278382 -0.041306585 -0.0073970603 -0.00063566363
000220 f0 e8 0b bd 52 6c 42 3c 5b 07 f5 3c f9 a2 f8 3c
       -0.034157693 0.011866646 0.029910734 0.030351149
000230 8b 6b 8f bd 38 68 4c 3d 29 12 82 bd 5c 6b 9c 3d
       -0.07002934 0.04990408 -0.0635112 0.07637665
000240 9a 84 32 bd 7c 35 a3 bb 68 b3 7f 3d 04 60 a1 bc
       -0.04358349 -0.004980741 0.062426955 -0.019699104
000250 f1 51 1b bd 4f d8 f7 bc a5 af 4f bc 8d 9c 91 3b
       -0.037919942 -0.030254511 -0.012676154 0.004443711
000260 aa f0 13 bd da 5d a9 3d b1 0d b1 bd 5c a6 9d bd
       -0.036118187 0.08269854 -0.086451896 -0.07697746
000270 97 bf 22 3c ac 26 59 3d b8 fc f2 bc 2c c2 99 3b
       0.009933374 0.053015396 -0.029661521 0.0046923365
000280 f3 be 45 3c 69 b8 91 bd 64 6f a0 bd 19 b1 c3 3c
       0.012069452 -0.071152516 -0.07833746 0.023888158
000290 48 45 61 bd 05 67 3d 3d 64 14 9d bd 0b 3b 41 bd
       -0.054997712 0.046240825 -0.07669905 -0.04717545
0002a0 6e 5b 8a bd ca 40 60 bd eb 67 3c bb ae c1 11 bd
       -0.0675572 -0.054749288 -0.0028748463 -0.035585098
0002b0 67 6c 85 3d bc 76 99 bd 08 b1 67 3d 1e 89 0c 3d
       0.06514817 -0.0749335 0.056565315 0.034310453
0002c0 63 82 78 3d 2c 13 b0 bd d6 b5 22 3d 5d d2 10 3d
       0.06067122 -0.08597407 0.039724194 0.035356868
0002d0 b0 1a 27 3d 9d 4b 1c 3c 62 e8 05 ba 8c 8e a1 3d
       0.040796936 0.009539512 -0.0005108175 0.07888517
0002e0 1b b1 39 3d f9 00 25 3c 0f b3 aa bb be 97 34 bd
       0.045334917 0.010071033 -0.0052093337 -0.044090025
0002f0 2d b4 a5 3d 08 64 83 3c 51 ff 44 3d 7f 5e 7a 3d
       0.080910064 0.01603891 0.04809505 0.061125275
000300 3e e0 92 bc d3 13 38 bd bf d1 50 3d c2 45 36 3b
       -0.017929193 -0.04494078 0.05098128 0.0027812575
000310 bd dc 97 3d 0e f8 5f 3d 9d 14 12 3d ef 50 2e 3d
       0.07415149 0.054679923 0.03566419 0.042557653
000320 c8 e2 b2 bc 53 72 0e 3d 5d 98 80 3d e9 cc 20 3d
       -0.021836653 0.034776997 0.06279061 0.039257918
000330 f8 57 f1 3c 1e 0a a1 bd c4 c8 a6 bd 01 16 32 bd
       0.029460892 -0.07863258 -0.08143762 -0.043478016
000340 d3 44 e7 3c 5f 46 86 bb c7 e6 93 bd b8 38 07 bb
       0.02823106 -0.0040977444 -0.07221752 -0.0020633172
000350 0d 44 11 bd 95 a1 37 3d f4 4b 6e bd b9 0f bd bc
       -0.03546529 0.04483183 -0.058177903 -0.023078786
000360 c2 f0 86 3d 91 65 58 bc 0e 5f 71 3c f7 27 6f 3a
       0.0658889 -0.013207809 0.014732135 0.00091230817
000370 0b 58 97 bd a3 78 aa bd e3 c4 db bc 5d 00 02 3d
       -0.0738984 -0.08323791 -0.026827281 0.031738628
000380 bc 4f 77 3d 8f 2c 18 3d db d1 6e bd 8f 97 28 3d
       0.060378775 0.03715187 -0.058305603 0.041160163
000390 50 4f 3e bc db 83 2d bd 20 38 8e 3c 3d 2f a5 bc
       -0.011615589 -0.042362075 0.017360747 -0.020164127
0003a0 ee 06 8b bd d8 68 dd 3c 48 5f a3 3d ae 8e 87 3d
       -0.06788431 0.027027532 0.07977158 0.06619011
0003b0 55 13 af 3d 24 46 26 bd 76 aa 60 bd 69 5b 48 bd
       0.08548609 -0.040594235 -0.054850064 -0.0489153
0003c0 55 3b 78 3d 02 74 a0 bd c8 73 b0 bd 73 c0 14 3c
       0.06060346 -0.07834627 -0.086158335 0.009079087
0003d0 d8 97 5b bd d8 91 56 bd 28 24 83 3d 06 71 be bc
       -0.053611606 -0.05238518 0.06403381 -0.023247253
0003e0 d0 1c 08 3d cf 25 0d bd 80 ba 8a 3d 5e 6e 42 3d
       0.033230603 -0.034459885 0.06773853 0.047468536
0003f0 a9 30 05 bd 05 3e 62 bd cb 94 8c 3d a7 89 7c bd
       -0.03251711 -0.055234928 0.068643175 -0.061654713
